Assets/RollerBallLife 1.onnx (onnx, 100545 bytes, 7 tensors)

39 f4 [1, 2]
000000 0d 5f 26 bf a9 26 2a bf
       -0.64988786 -0.6646524

distribution.mu.bias f4 [2]
000000 88 de 71 bd a7 ee cd 3c
       -0.059050113 0.025138212

distribution.mu.weight f4 [2, 128]
000000 fd 2c 28 bd 5a 5b 9c 3d cc f3 c6 bc 04 45 fc 3d
       -0.04105853 0.076346114 -0.024286173 0.12317851
000010 b9 f1 01 3d 51 7b d2 3d 59 fd d2 3c 46 5b 41 3d
       0.031724665 0.10277427 0.025755571 0.047206186
000020 82 15 b1 3d 23 08 be bc 8a b6 e1 3d ef 53 28 3e
       0.086466804 -0.02319724 0.11021145 0.16438268
000030 1c d3 b1 3c f7 ef a6 3c d2 5c 46 3d 81 b8 d3 3d
       0.02170711 0.020378096 0.048428364 0.10337926
000040 de 3b da 3d e1 c9 ac 3d 4e 19 75 3d 3c df 09 3e
       0.1065595 0.08436943 0.059838586 0.13464063
000050 f4 e0 41 3e 47 4f 83 bd 79 4f 60 bd 8d f2 ec bd
       0.18933469 -0.06411605 -0.05476329 -0.115697004
000060 df 16 b3 bc 74 42 08 3e e9 11 90 3d 89 20 f1 3d
       -0.021861492 0.133066 0.07034666 0.11773784
000070 d5 b9 4a 3e c0 ca ae bd 37 f4 bf 3c b0 ec 89 3d
       0.19797452 -0.08534765 0.02343188 0.06734598
000080 f6 99 c1 3d d4 e0 ca 3d ec 49 9e 3d ff 66 7e bd
       0.09453194 0.09906164 0.07728943 -0.062109943
000090 7c 54 d6 3c 09 85 85 bc a9 f4 ee 3d 65 72 8b 3d
       0.026163332 -0.016298788 0.11667759 0.068089284
0000a0 da 72 18 3e 14 46 cc 3d a4 ef dd 3d a1 ab 1b 3e
       0.14887562 0.09974304 0.108367234 0.1520219
0000b0 64 7a 91 bd 1f 1a 96 ba 0b ca 81 bd af fa 9e 3d
       -0.07103422 -0.0011451876 -0.06337365 0.07762658
0000c0 ff 20 24 bd a3 d3 cf 3d cf f6 2f bd 7d 2d b5 bd
       -0.04007053 0.101477884 -0.042959984 -0.08846567
0000d0 95 e8 1b bd 8a 8a 96 3d 87 02 46 3d 79 0f 14 bb
       -0.038063604 0.07350643 0.048342254 -0.002259223
0000e0 01 b4 28 3e 56 a4 5c 3e cc 29 5c 3d a9 c2 8f 3d
       0.16474916 0.21547064 0.053750798 0.0701955
0000f0 e4 c9 5f 3c 74 c3 8f 3d 29 04 c7 3d 0d 62 7c bc
       0.013658974 0.070197016 0.0971759 -0.0154042365
000100 b6 d1 0a 3e fb 9f f6 3d 8a 68 6d 3d 56 fc 78 bd
       0.13556561 0.120422326 0.057961024 -0.06078752
000110 91 ba 45 3e dd aa 10 3e c8 29 e9 bd 9c fa e2 3b
       0.1930945 0.14127679 -0.11384922 0.0069268476
000120 5f d5 7d 3d 49 87 d4 3c 89 ad 1f 3e cd 1b 8d bd
       0.061971065 0.025943415 0.15593542 -0.06890068
000130 5a ab 04 bc a5 54 23 3e 78 f8 dd 3d fc 19 90 3d
       -0.008097494 0.15950258 0.10838407 0.07036206
000140 ea 9a 93 3d 9c f9 ab 3d f1 c2 0a be 1a 0b 0d 3e
       0.07207282 0.083972186 -0.13550927 0.13773766
000150 f7 b5 74 3d 24 c4 54 3d 86 18 5f 3e 52 46 8b 3d
       0.059743848 0.051944867 0.21786699 0.06800522
000160 56 e7 ae bc 3b a6 e2 3d af 6d ce bd 1e fe 30 bd
       -0.021350544 0.11066862 -0.10079514 -0.043211095
000170 7d 0a 6d 3d f4 26 6b 3d 03 e4 a8 3d 4c 74 2e 3c
       0.05787133 0.057410195 0.08246615 0.0106478445
000180 c1 0b f8 3d ee b9 93 bb c5 ac 07 3e 26 2c b6 bb
       0.12111617 -0.0045082485 0.132495 -0.005559462
000190 82 56 d8 bd cd 0f a1 3d 6c 58 04 3e 85 54 24 3e
       -0.10563375 0.07864342 0.12924355 0.16047867
0001a0 74 c6 a7 3c 55 72 1a 3e 5f 2e 2b 3d 5f 83 25 3e
       0.020480372 0.15082677 0.04179227 0.16163395
0001b0 45 d6 49 3e e2 8e 2a 3e 53 37 74 3d d5 8f b2 3d
       0.19710644 0.16656068 0.059623074 0.0871884
0001c0 51 1f 2b 3d 61 d9 38 3d 75 65 a1 3d 9d cc 0a 3e
       0.041777913 0.045129184 0.078806795 0.13554616
0001d0 46 dd 29 3e 6d b7 d2 3d 8a 9f 87 3d 6b 84 a5 bd
       0.16588315 0.10288892 0.066222265 -0.08081897
0001e0 c8 ab 02 3d 45 40 02 3e 80 9a 8d 3d 98 6f f3 3d
       0.031902105 0.1271983 0.06914234 0.11886519
0001f0 5c 7e cf bd 1b 1d 01 3e c2 50 1a 3e 16 bf 38 bd
       -0.10131523 0.12608759 0.15069869 -0.04510411
000200 6f 56 30 bd 16 89 9a bd 38 05 b8 bc 50 2b c0 3d
       -0.04305118 -0.07545678 -0.022463426 0.09383261
000210 db 8b a8 bd 85 42 1e bd 82 30 9b 3d d8 4f bb bc
       -0.082298 -0.038637657 0.075776115 -0.02286522
000220 91 04 fc 3c 86 f5 48 3d f4 0c 20 bd 44 80 fe 3d
       0.030763896 0.049062274 -0.039074853 0.124268085
000230 7a f9 51 bd 91 7e 31 be d2 94 20 3c 45 4d 8c bd
       -0.05126331 -0.17333438 0.0098011065 -0.068506755
000240 c9 35 65 bd 1e c1 5b bc a1 72 91 3d 50 a9 a7 bd
       -0.055959497 -0.013412742 0.07101942 -0.08186591
000250 3a db 7a 3c 03 a5 68 bd d4 63 3a 3d 40 7d 86 bd
       0.015311057 -0.056797992 0.04550536 -0.06566858
000260 36 2a ab 3d 8e 31 5c bd c7 11 5b bc eb 7d a7 bd
       0.083576605 -0.053758197 -0.013370938 -0.08178314
000270 ba ab 54 bd 84 59 5a 3d a5 b6 c8 3d e3 de 06 be
       -0.051921584 0.053308025 0.09800462 -0.13170962
000280 49 db c6 bc f3 c4 8c 3c 4e 1e 08 3e 6b dc 33 3e
       -0.024274485 0.017183756 0.1329281 0.17564552
000290 c9 7a 45 3d bc fd 10 bd f1 fb 0f 3d e2 a9 fe bd
       0.0482128 -0.03539823 0.03515238 -0.12434746
0002a0 0d 7e ad bd ef cd eb bd 85 7e 91 bd 42 59 e7 bd
       -0.08471308 -0.11513888 -0.0710421 -0.112963215
0002b0 3b 4d 95 3d 5a d3 5d bd 7a 77 88 3d 38 73 2f bd
       0.07290121 -0.05415664 0.06663413 -0.04283449
0002c0 4a 05 cb 3d d4 55 30 3c 9c af 73 3d 2c 9d 32 3d
       0.09913118 0.0107626505 0.059493646 0.043606922
0002d0 22 cd d1 3d 6d ea cf bd 28 7c 63 3d 55 44 4d be
       0.10244204 -0.10152135 0.055538327 -0.20045598
0002e0 04 d5 cb bd 2e 7b ec 3d b9 33 c5 3d 7e ad b8 3d
       -0.09952739 0.11546932 0.09629006 0.09017466
0002f0 a9 86 81 bd d4 8b 7b bd 49 62 50 bd d4 b7 87 3d
       -0.063245125 -0.061412647 -0.050874982 0.06626859
000300 34 4c 0c be cc 48 e1 bd be 64 5a bc 31 24 15 3c
       -0.13700944 -0.11000213 -0.013329683 0.009102867
000310 91 28 f8 3d a7 e2 9c bc e4 49 fb bd 82 ad c6 bd
       0.121171124 -0.019151045 -0.12269953 -0.09701063
000320 00 1e 3e bd 50 7d 2c be d6 4b b2 3c 2d d5 1e 3e
       -0.04641533 -0.16844678 0.021764677 0.15511008
000330 05 38 73 bd 9f a0 35 3d 6b 34 22 bd c3 0d 35 bd
       -0.059379596 0.044342633 -0.03960077 -0.044202577
000340 cc ac 39 3d 72 41 a5 3c ee 26 b0 3d 44 26 85 3c
       0.045330808 0.020172808 0.08601175 0.016253598
000350 d3 35 db 3c 83 40 48 bd 77 6a 4b 3d 64 bf ef 3c
       0.026759064 -0.04888965 0.04966208 0.029266067
000360 4b 20 25 3e 25 df 0e bc eb 51 c7 bd 91 85 03 3e
       0.161256 -0.008720194 -0.097324215 0.1284392
000370 cc 8c 35 3d 87 b2 27 be 73 6a ed bc 65 f1 6a 3d
       0.044323727 -0.16376697 -0.028981423 0.057359118
000380 d7 b2 af 3c 05 09 ef 3b cf d5 d9 3d 2d 67 22 3e
       0.021447582 0.0072947764 0.10636484 0.15859671
000390 08 56 93 bd 71 a2 9a 3c a5 67 aa 3b 6c 45 84 bc
       -0.071941435 0.018876286 0.0052003437 -0.016146384
0003a0 f4 84 a7 bd da a4 10 be f1 58 1e be 06 86 80 3c
       -0.08179656 -0.14125386 -0.15463616 0.015688907
0003b0 22 cc db bc e8 16 ab bd e5 69 c1 bd 50 eb c5 bb
       -0.026830737 -0.083539784 -0.09444026 -0.0060400143
0003c0 d8 c4 53 be cd bf 40 bd f1 49 4f 3c 6c 8b 28 be
       -0.20680559 -0.047057915 0.012651906 -0.16459435
0003d0 4c 30 0e 3d 5d ad af bd b1 d6 bc bc 50 bb 69 bc
       0.03471403 -0.08577988 -0.023051592 -0.01426585
0003e0 08 7c f4 bd 0d 3e 34 bd 11 45 b2 bc a3 83 49 3c
       -0.119377196 -0.04400449 -0.021761449 0.012299451
0003f0 4c b1 d9 3d eb 3c 27 bd 23 11 e1 bd bc d6 eb 3d
       0.1062952 -0.04082958 -0.10989597 0.11515567

network_body.linear_encoder.seq_layers.0.bias f4 [128]
000000 46 1e ac bc 25 ec 82 bc 77 b5 fe bc b0 70 99 bd
       -0.02101053 -0.015981743 -0.031092389 -0.074921966
000010 ce 7f 54 bd 26 50 b9 bc d1 7d 2d bd b2 af 0d bc
       -0.051879697 -0.022621226 -0.042356316 -0.008647846
000020 c7 5c 60 bd e8 77 d6 bc 2a 0b e9 bc 15 24 5c bc
       -0.05477598 -0.026180223 -0.028447706 -0.013436337
000030 a4 4e 2e bc 5d c9 7d bd 29 24 f8 3d f0 cc 8f bd
       -0.010638867 -0.061959613 0.12116272 -0.070215106
000040 3d fe 1d bd f9 fd 88 3d 25 b9 57 bd 11 65 f7 bc
       -0.03857254 0.066890664 -0.052666802 -0.03019956
000050 d4 1d 65 3c e1 34 da 3b aa ff 53 bc d4 58 f1 bc
       0.013984162 0.0066591357 -0.012939373 -0.029461302
000060 42 28 0b be 98 b2 ab 3d b4 e1 28 bd ef 9f 3f bb
       -0.13589576 0.083836734 -0.041230872 -0.0029239615
000070 af c2 ff 3d 83 a0 2a bc 0a d3 8d bd 3f a6 d6 3d
       0.12488305 -0.010414246 -0.06925018 0.10480928
000080 56 19 7c bc a3 55 15 bd ab 39 48 3d 66 4a 0d 3d
       -0.0153869 -0.036458623 0.04888312 0.03449478
000090 54 00 70 bd ba a3 c8 3b 5f 22 1d be d2 05 8f bd
       -0.058594063 0.0061230334 -0.15345143 -0.06983532
0000a0 d4 98 8f 3c aa 37 e4 bc 0b fe 91 bd ff a3 d4 3c
       0.017528929 -0.027858574 -0.07128533 0.025957106
0000b0 7f 8d 88 bd 49 5b 86 bd 6c 58 e5 bd 5c 8c f8 3c
       -0.06667613 -0.0656038 -0.11198506 0.030340366
0000c0 46 36 bf 3c 3b 99 95 bd 0c 15 17 bd 1d 13 08 39
       0.02334131 -0.07304617 -0.036885306 0.00012977091
0000d0 d0 cc 78 be 2a 7e 56 bd d5 59 ef bd e3 a6 52 bd
       -0.2429688 -0.052366413 -0.11687056 -0.051428687
0000e0 da d6 16 bd 73 ab dc bd 7a 8e d6 bd 62 e5 8f bd
       -0.036825992 -0.10774889 -0.10476394 -0.07026173
0000f0 cb a7 09 bc 04 eb 07 be a1 48 98 bc 00 48 7e bd
       -0.008401821 -0.13273245 -0.01858932 -0.062080383
000100 97 24 f7 bb f2 91 0f bd 76 cc 5e bc 34 5d ab bd
       -0.0075422036 -0.035051294 -0.013598552 -0.083673865
000110 4b 86 3c be 96 df 84 bd 10 d5 3c bd 3a 3e a4 bd
       -0.18410604 -0.06487958 -0.04610163 -0.08019681
000120 23 1a b4 bc ba 41 ba 3d 64 ee 0d bd 4c 71 09 3d
       -0.02198512 0.090945676 -0.034651175 0.033555314
000130 71 e3 67 3c 42 1e b9 bb f1 8d b6 bc 08 82 bd bd
       0.014153347 -0.005649359 -0.02228448 -0.09253317
000140 74 c0 27 3d e0 09 e4 bd 5f 05 02 3e 60 63 56 3d
       0.040955022 -0.11134696 0.12697361 0.052340865
000150 70 fc 7d 3b 8c 87 2b 3e 4b a1 22 bb 6a d7 86 3c
       0.00387552 0.16750926 -0.0024815376 0.01646014
000160 9a be f7 bd 36 8d ac bd 56 89 e5 bd ab 14 02 bd
       -0.12096901 -0.08425371 -0.112078354 -0.03175799
000170 5e 7f 42 bd 90 74 f2 3d 5a 3a 7d bd 73 bb ef bc
       -0.047484748 0.11838639 -0.061823227 -0.029264187
000180 f2 08 87 bd 77 a9 7a bd f6 81 80 bd 95 9b 7e bd
       -0.06593503 -0.06119677 -0.06274788 -0.062160093
000190 0e 6a 09 3e 4a 2b 17 be a7 42 c5 bd fb 53 28 be
       0.13419363 -0.14762607 -0.096318536 -0.16438286
0001a0 46 a0 87 bd 02 57 0b bd c4 2f 48 bb 4f f4 35 bb
       -0.066223666 -0.034018524 -0.0030546049 -0.0027764027
0001b0 96 3a 9e bb 96 56 ab bd ee e7 0f 3d d1 24 ac bc
       -0.0048287613 -0.08366124 0.035133295 -0.02101365
0001c0 34 40 84 bd 14 88 70 3d 61 d7 7e bd d6 bc 81 bc
       -0.06457558 0.058723524 -0.06221712 -0.015837114
0001d0 5a 68 25 3c 68 1e 32 be 23 21 ef 3c 89 fc 70 3d
       0.01009568 -0.17394412 0.029190606 0.058834586
0001e0 88 41 17 bd 68 b4 15 bd 74 2d d7 bd c7 f7 82 bd
       -0.03692773 -0.036549002 -0.10506716 -0.06394916
0001f0 21 40 d9 3b 0a 56 20 3d b2 4e ba bc bf 58 bd bd
       0.006629959 0.039144553 -0.022742603 -0.092454426

network_body.linear_encoder.seq_layers.0.weight f4 [128, 61]
000000 a7 bf d2 3c 97 9e 80 3c 14 71 fb bd 3f fb b6 bc
       0.025726153 0.015700622 -0.12277427 -0.0223366
000010 79 ad 3a 3e bd ef a4 3c 42 f7 7b 3e e5 02 5f bd
       0.18230237 0.020133847 0.2460604 -0.05444612
000020 22 cd a0 bc cc 94 9d 3d 21 89 d2 bc 4a 5d 10 be
       -0.019629065 0.076943964 -0.025700154 -0.14098087
000030 2d fd ac bd 6b 3d cc bd df e3 68 be ad 9c 12 be
       -0.08446727 -0.09972652 -0.22743176 -0.1431758
000040 f8 97 e7 3d 01 c8 1a 3e dc 63 28 3e f2 0f 72 be
       0.113082826 0.15115358 0.16444343 -0.23638895
000050 78 5d b6 3e f2 f5 1d 3d 32 c8 9d 3c 3b 08 71 be
       0.35618186 0.03856463 0.0192605 -0.23538296
000060 29 ec f9 be 07 dc c8 bd 9f 3b 74 bd e9 6c 2e be
       -0.48812988 -0.09807592 -0.05962717 -0.17033733
000070 71 02 1b be 81 13 ea bd 45 71 b1 3e a8 24 ec 3d
       -0.1513765 -0.11429501 0.3465673 0.11530429
000080 18 8f 45 be 6e b1 6c be d1 bd ce bd df d2 61 3e
       -0.19292867 -0.23114559 -0.10094798 0.22053097
000090 bd 6c d0 bd d4 00 a7 bc 3a 98 28 3d 66 a7 6f be
       -0.1017699 -0.020386137 0.0411608 -0.23403701
0000a0 59 b4 6c be 1f 44 5d bd 35 d7 5f 3d 2c d5 c2 3c
       -0.23115672 -0.054020043 0.054648597 0.023783289
0000b0 98 f6 d1 3d 83 7a 27 be 86 5b 28 3e 8c 45 0c 3f
       0.10252112 -0.16355328 0.16441163 0.5479362
0000c0 39 3e 87 be 58 bb 7c bc bb 2d 73 be 52 23 82 be
       -0.2641466 -0.015425526 -0.23747914 -0.25417572
0000d0 15 fb c3 3e e4 ec c4 3d 31 d5 d2 3d 9a 28 27 3e
       0.38277498 0.09615496 0.10294569 0.16324082
0000e0 ad 57 ed 3d bb ef ef 3d e9 fd 56 be f6 3f 6d be
       0.115889885 0.11715647 -0.20995297 -0.2316893
0000f0 f2 35 ba 3d dd 14 64 be 03 fc a8 3c 89 fb 40 bc
       0.090923205 -0.22273584 0.020627981 -0.011778721
000100 09 4f c2 3d f8 44 ee 3d d4 42 08 bc 03 d2 de bd
       0.09487731 0.116342485 -0.008316714 -0.108799
000110 2f 2d 32 be aa c4 b2 3d 67 18 cc bc 1d 38 7f 3e
       -0.17400049 0.08728917 -0.02491398 0.2492375
000120 c5 00 37 be 8a 5f c6 be 63 0a 51 3d f0 bc 12 bc
       -0.17871387 -0.38744766 0.051035296 -0.008956179
000130 45 e1 33 3d 6d 38 9f be d0 80 87 bd 53 04 71 3e
       0.043916006 -0.31097737 -0.06616366 0.23536806
000140 9a d1 2c be ce 39 e6 3d a5 c0 0a 3e 9d 6a de bd
       -0.16876832 0.11241494 0.1355005 -0.108601786
000150 13 e6 08 3e 36 bd 1c 3d be a5 14 3e 6c 60 06 3e
       0.13369016 0.038266383 0.1451635 0.1312272
000160 11 6d 02 bf 09 94 d4 bd d3 c0 f5 bc f1 16 f3 3d
       -0.5094767 -0.10379798 -0.029999172 0.1186961
000170 8f 89 8e bc 41 05 11 3d 79 f0 15 be 22 f6 fb bc
       -0.017399577 0.0354054 -0.14642514 -0.030757014
000180 41 98 12 3e 90 ef 11 3e 2e ca b4 be ee 84 f0 3d
       0.14315893 0.14251542 -0.353105 0.11744104
000190 dc d4 bd 3c 6a 6a 3d bd 84 16 a6 3d d9 f3 a1 3d
       0.023172788 -0.046244062 0.08109763 0.079078384
0001a0 1b 09 57 3e 02 96 ed bd 5e ba 89 be b5 1c 21 3e
       0.20999567 -0.11600877 -0.269 0.15733607
0001b0 da 3c c3 bd 0b 61 76 3e cb ae 2d 3e 9c b2 f9 bd
       -0.09533091 0.24060456 0.1696121 -0.1219227
0001c0 1c 43 9a 3e 8b b0 d5 bc 42 4b f6 3d cb 48 6d 3e
       0.30129325 -0.026085159 0.12026073 0.231723
0001d0 d2 dd c5 be 65 d1 68 3e 19 9c 70 bd b5 50 50 3d
       -0.38645798 0.22736128 -0.058742616 0.05085822
0001e0 fb 97 d1 3b 08 b1 65 3e 58 0e 5f 3e 9c fd 49 3d
       0.0063962913 0.22430813 0.21782815 0.049314126
0001f0 a5 72 50 bd bd a1 8d bd 99 c4 84 be 62 1d d0 3d
       -0.050890584 -0.06915615 -0.25931242 0.10161854
000200 d0 21 0c 3d 76 a1 bb bd e4 bc 30 be df b5 a8 3b
       0.034211934 -0.091616556 -0.17259556 0.005148634
000210 25 79 1a be e4 54 79 3d 03 06 6e be 2f e4 13 bd
       -0.15085275 0.060871974 -0.23244481 -0.036106285
000220 1e 13 36 be 41 52 8b be bd 8e 3c be 71 15 c2 3d
       -0.1778073 -0.27211192 -0.18413825 0.09476746
000230 42 ef d9 3d 69 f5 92 bd 84 61 36 bd 29 9e fb be
       0.10641338 -0.071757145 -0.044526592 -0.49144104
000240 36 4f 8d 3e 73 0d 10 be f3 48 70 3c 01 da 7c 3c
       0.27599496 -0.1406763 0.01466583 0.015432836
000250 21 ee 1a be a3 22 82 bd 4c c1 4a bc 86 1b 12 3e
       -0.15129901 -0.06354263 -0.012375187 0.14268312
000260 e3 c3 a9 be a9 96 90 be ae 93 6a 3e 1d 5c d6 3d
       -0.33157262 -0.28239945 0.22907898 0.10466788
000270 ab 41 73 3e 61 99 07 3e 3d 87 68 bd 95 88 01 be
       0.23755519 0.13242103 -0.0567696 -0.12649758
000280 15 51 05 3e a3 e3 b9 3d ee 21 f8 3e c5 7b 42 be
       0.13019212 0.090766214 0.48463386 -0.18992527
000290 f2 cc 34 be 06 2f d0 bc 71 1e 60 be 3e 5f 58 3e
       -0.17656305 -0.025413048 -0.21886612 0.21130082
0002a0 50 b0 11 be 3f 08 80 3d ce d0 35 be dd b1 8b bc
       -0.14227414 0.06251573 -0.17755434 -0.017052585
0002b0 73 79 34 3e f2 18 5b 3e b6 65 8c bd b1 c9 cb bc
       0.17624454 0.21396235 -0.06855337 -0.024876447
0002c0 78 7f 71 3e 86 51 0a 3e 7d c1 7f be ff ae 9b bd
       0.23583782 0.13507661 -0.24976154 -0.07601737
0002d0 50 9a 26 3e 0d 37 7e 3e 65 fc 12 3e 83 96 89 be
       0.16269803 0.24825688 0.14354093 -0.26872644
0002e0 3d 23 32 be fb c9 89 bb fc 45 d0 bd 38 fd fe 3a
       -0.17396255 -0.004204986 -0.101695985 0.0019454127
0002f0 85 8b ee 3d 15 8f 04 bd 70 6f f1 3b 94 ec 4a be
       0.11647705 -0.032363016 0.0073680207 -0.1981681
000300 f3 bf ef bd a9 f8 84 bd 93 bb 23 3e 90 d8 df bd
       -0.11706533 -0.06492741 0.15989523 -0.10929978
000310 c4 5d b2 3c fc 77 2c be fd 6d 56 3e d5 d8 40 be
       0.021773227 -0.16842645 0.20940395 -0.18832715
000320 f3 95 a6 bc a5 82 ed bc c6 22 37 bd c3 06 17 3e
       -0.020335173 -0.02899296 -0.044710897 0.14748673
000330 e6 7a 5d 3e a0 b7 03 3b 0f 7b 00 3e 13 01 3b 3d
       0.21628913 0.0020098463 0.12546943 0.04565532
000340 8f c7 b3 3c 26 0f 6e be fa d8 38 bd 8f 3d db 3c
       0.021945743 -0.23247966 -0.0451288 0.026762752
000350 5b 3f 92 bc 8b eb 92 bc a5 3a ab be a6 65 62 bd
       -0.017852476 -0.017934581 -0.3344318 -0.05527272
000360 ed f4 a4 bc eb 39 06 bd 92 cb be bd 1d 30 8f 3e
       -0.020136321 -0.03277008 -0.09316172 0.27966395
000370 48 13 88 be b3 4b 3f bd b2 05 4a be 50 01 91 3e
       -0.2657721 -0.04670305 -0.19728735 0.28321314
000380 db aa 55 bd 40 3a 03 bd 18 59 56 3e f8 56 1a bd
       -0.052164894 -0.032037973 0.20932424 -0.037680596
000390 d5 df 3e 3e 9e 8b 22 be cb 97 1b be 84 82 5f bd
       0.18640073 -0.15873572 -0.15194623 -0.05456783
0003a0 92 26 5f be 56 07 58 3e 7e 0d e9 3d c4 6d 89 be
       -0.21792057 0.21096548 0.113795266 -0.26841557
0003b0 1f 0b 89 3d 04 d2 31 3e a5 40 7e be aa 2f dd 3d
       0.06691574 0.17365271 -0.24829347 0.10800107
0003c0 c1 d6 b6 be fd 6a 97 bc b4 81 c1 3e 40 45 08 bc
       -0.3571072 -0.018483633 0.37794268 -0.008317292
0003d0 bc a2 9f bd ee 13 f0 3c c8 98 ff 3d 18 94 3b bd
       -0.07794711 0.029306378 0.124803126 -0.04579553
0003e0 87 02 43 3e 63 df eb bd 1c af e3 bd 1f 93 40 bd
       0.19043933 -0.11517217 -0.11117384 -0.047015306
0003f0 99 41 b3 3d 3a 7a 48 3d 03 ca b6 3d b7 0d ab 3d
       0.08752746 0.04894469 0.089252494 0.08352225

network_body.linear_encoder.seq_layers.2.bias f4 [128]
000000 22 01 c1 bd 63 2d 08 bd 09 c6 21 3d c2 7a a5 bc
       -0.09424044 -0.03324641 0.0394955 -0.020200137
000010 c9 be 92 bc d2 da 10 bd a9 f3 ce 3c d9 e0 fc 3c
       -0.01791324 -0.035364933 0.02526267 0.030868934
000020 bc e6 5c bd 62 65 c9 bd e0 97 d1 bc 82 73 08 3d
       -0.053930983 -0.0983379 -0.025585115 0.03331328
000030 da 7d 87 bd e1 f0 5e bd d1 f9 d4 bc 38 a7 67 3c
       -0.06615801 -0.05442894 -0.025998028 0.014138989
000040 e1 04 57 3d 19 a0 b1 3c 11 e3 59 bd 42 c0 79 3c
       0.052494887 0.021682786 -0.053195063 0.015243592
000050 87 ca 89 3d f8 b2 51 3d de 40 ee bd 4c 7a c4 3d
       0.06728082 0.05119607 -0.11633466 0.09593639
000060 3c b1 64 bc 3a 8d 7e 3c 4c f7 af bd e6 84 bb bc
       -0.013958272 0.015536601 -0.0859209 -0.02289052
000070 8e cb 95 3c 84 d1 bc bd b1 b0 84 bd 81 d4 91 bd
       0.018285539 -0.092196494 -0.06479014 -0.0712061
000080 2f bd 89 3c 08 6b cd bc c4 bc d4 bc 65 38 01 3c
       0.016813843 -0.02507545 -0.025968917 0.007886981
000090 09 b1 19 be 82 af 80 bd c9 27 96 bd 89 ac 22 bc
       -0.1500894 -0.062834755 -0.07331807 -0.009928831
0000a0 36 2f a9 bc c8 a6 d6 bc 22 fe 70 bc 77 5d f6 3c
       -0.020652395 -0.026202574 -0.0147090275 0.030073864
0000b0 91 f2 7a 3d a0 ff ff bc 3d ac fd bc cd 75 8b bd
       0.061266486 -0.031249821 -0.030965919 -0.06809578
0000c0 15 6a 64 bd 03 79 5b bc f1 49 b3 3b d8 fd b2 bd
       -0.05576523 -0.013395551 0.005471461 -0.08739823
0000d0 e6 cb 72 3c 14 6b f2 bc d8 ed 60 bd 43 bd 4e bd
       0.014819121 -0.029592074 -0.054914325 -0.050473463
0000e0 4b 04 94 3d b1 ff 8f 3d 6f a2 0f 3e 32 95 85 bd
       0.07227381 0.07031191 0.14026807 -0.065225974
0000f0 99 03 ae bd 26 92 6e 3c 03 a5 a8 bc 0c fc bc bd
       -0.0849678 0.014561212 -0.020586496 -0.092277616
000100 9d 99 3e 3c cd e4 a4 bd 0f c7 05 bc 76 9a 34 bd
       0.011633304 -0.08051453 -0.008165135 -0.044092618
000110 87 ea 9d 3d 72 c3 5b 3d 94 ac 0b 3e 30 3f b2 bc
       0.07710748 0.053653188 0.13640052 -0.021758646
000120 00 fb 50 bd 34 a2 8d bd d8 32 43 3d e9 dc be 3c
       -0.051020622 -0.069157034 0.04765591 0.023298698
000130 ee 67 de bd c2 2d 54 3b 3b f1 ae bc d8 d4 cf bb
       -0.10859667 0.0032375907 -0.021355262 -0.0063425116
000140 14 f2 7a bd 1b eb 15 bd c8 92 02 bd 26 96 12 bd
       -0.06126602 -0.036601167 -0.031878263 -0.035787724
000150 38 60 e1 bd bc b5 64 bd 01 3c ab 3c de 8a 93 3c
       -0.110046804 -0.055837378 0.020902636 0.018010553
000160 56 c8 2b 3d 82 a7 6d bd ff 51 b2 3d d6 24 b8 3b
       0.041939102 -0.058021076 0.08707046 0.0056196256
000170 08 37 2d bd 8a af fe bc 1b 7b 5b bc 52 91 ee 3b
       -0.04228881 -0.031089563 -0.01339605 0.007280507
000180 01 b0 2e 3d 82 7f 2a be fe 7e 6f 3d db 91 f8 3c
       0.04264832 -0.16650203 0.05847072 0.030342987
000190 4d 00 ef 3d 92 e5 a3 bd a5 8c 59 bd 58 3b 2e 3d
       0.11669979 -0.080027714 -0.053112645 0.042537063
0001a0 77 83 c1 bd 3d 63 da 3c b1 ee 8c bd 79 9e d9 3c
       -0.09448903 0.026658649 -0.06881464 0.026564823
0001b0 be 78 96 3d 1c be 48 bc e4 79 18 3c 14 86 5c bd
       0.073472485 -0.012252357 0.009306405 -0.053838804
0001c0 fb 84 30 bd 28 6f 2a bc da 8e d5 bd 0e f3 72 3c
       -0.04309557 -0.010402478 -0.104276374 0.014828457
0001d0 62 cb 92 3d 99 92 c2 bb cc ed 0e bc 5a 38 b4 3d
       0.071676984 -0.005937886 -0.008723687 0.08799811
0001e0 a0 90 ae bd e6 a7 23 bc 06 cf 63 bd 0d 5b 90 3c
       -0.08523679 -0.009988761 -0.055617355 0.017621541
0001f0 5c 35 e6 bc ee 7c 14 bd 52 fd 88 3c 71 17 98 bd
       -0.028101616 -0.036251955 0.016722355 -0.07426346

network_body.linear_encoder.seq_layers.2.weight f4 [128, 128]
000000 a8 e3 24 be 1f 3e d8 3c 23 e8 0b bd ac 7a b5 3d
       -0.16102469 0.02639681 -0.03415693 0.088612884
000010 5d 61 b6 bb 07 f6 fd bd 93 e5 2c be 1d 0d 39 3d
       -0.005565806 -0.124004416 -0.1688445 0.04517852
000020 77 0c ba 3d 3c 5a 10 be 1e b7 31 3e 74 8a 8f 3d
       0.09084409 -0.14096922 0.1735501 0.0700883
000030 a7 a3 a8 3c f3 f0 c5 3d d0 e6 3d be a3 a9 ee 3c
       0.020585848 0.09665098 -0.18545079 0.029133623
000040 d5 32 7b bb 2b ae 25 3e c0 bf 22 3e dd 9e 15 be
       -0.0038329859 0.16179721 0.1589346 -0.14611383
000050 ac 24 1f bc b9 23 ad 3d 39 17 4e be 57 17 83 bc
       -0.009713333 0.08454079 -0.20126046 -0.01600234
000060 0b 07 33 3d 2c 76 02 bd 3c 47 a1 bd 43 27 c3 3b
       0.04370789 -0.03185098 -0.07874915 0.005955608
000070 09 22 a3 3e 49 41 3d bd 83 b0 4f be df 38 a9 bc
       0.31861904 -0.04620484 -0.20282178 -0.020657001
000080 34 45 29 3e 0c 66 b7 bc 32 b7 aa bd ce ee 28 bb
       0.16530305 -0.022387527 -0.08335723 -0.0025777104
000090 8f a8 c2 3b db 84 1f 3e 8c 35 29 be bd 78 c8 bd
       0.005940504 0.15578024 -0.16524333 -0.09788654
0000a0 75 50 06 be 25 9e 30 be ef 74 06 be 23 47 d7 3d
       -0.1311663 -0.17247827 -0.13130544 0.10511615
0000b0 a8 f6 cf 3d 9d f4 58 be d6 78 24 bc ad b1 90 3d
       0.10154468 -0.21187063 -0.010038575 0.07065139
0000c0 f8 60 04 3c 50 10 05 3e 92 8b 16 3e 93 d6 05 be
       0.00807976 0.12994504 0.1470168 -0.13070135
0000d0 0a f0 2a be b1 a2 c4 bd 00 88 86 bc 29 7b 51 3e
       -0.1669313 -0.096013434 -0.016422272 0.20457138
0000e0 b8 f9 cb bb 54 fe 05 3e d1 43 0e bc 91 e1 d2 bd
       -0.006224837 0.130853 -0.008683161 -0.1029693
0000f0 ee dc cd bb fb 60 12 bd 58 47 46 3c 56 fc 6c 3c
       -0.0062824404 -0.03573702 0.012101971 0.014464458
000100 57 19 be bd 5e 16 49 be b3 d6 9d bd 90 e7 67 3d
       -0.09282177 -0.19637439 -0.07706966 0.05661732
000110 49 73 94 3d 06 46 b7 3d 72 de 6f bd 71 c8 4f be
       0.072485514 0.08948903 -0.05856175 -0.20291306
000120 44 23 ff bc 1b 82 77 be ef d0 08 bd 32 e9 a8 bd
       -0.031144746 -0.24170725 -0.03340238 -0.082476035
000130 5c 56 25 3e 19 b6 66 3c 00 60 af bd 76 19 58 bd
       0.16146225 0.014081501 -0.085632324 -0.052758656
000140 8b 69 03 3e 73 80 89 bd ab 0e 4a be 6e c0 78 bb
       0.1283323 -0.06713953 -0.19732158 -0.0037956494
000150 e7 b7 f8 bd 3d 0f 86 bd 3d 15 8c 3d 06 1d 5f bd
       -0.121444516 -0.06545875 0.068399884 -0.05447104
000160 2d 1c 09 3e 1c bd 3a bd af b4 b9 bd b1 ec 21 bd
       0.13389654 -0.045590505 -0.09067666 -0.039532367
000170 88 19 91 be e6 67 c2 3d c0 c9 c9 3d 35 61 92 bd
       -0.2833979 0.09492473 0.09852934 -0.07147447
000180 9f 14 83 3d bf 9c ef 3c cd ac a5 3c c4 45 43 3c
       0.064004175 0.029249547 0.020224 0.011918489
000190 f8 ca 16 be 46 7f 63 be 39 1a ec 3c 81 cc ff 3d
       -0.14725864 -0.2221652 0.028821098 0.12490178
0001a0 15 2e d9 bc d3 a1 ed 3d f4 78 bf 3d bb df 63 bd
       -0.026511231 0.11603131 0.09349242 -0.055633288
0001b0 cc e5 ae bd 69 19 e0 3c ab 8d 35 3e 5e f8 39 be
       -0.08539924 0.027355867 0.17729823 -0.18161151
0001c0 db ca 19 be 30 35 ef bd 78 f0 d2 3d 24 78 da 3b
       -0.1501879 -0.116800666 0.10299772 0.006667154
0001d0 54 76 91 bd 17 78 84 bd 37 c7 96 bd 86 08 61 bc
       -0.071026474 -0.06468218 -0.07362216 -0.013734942
0001e0 a0 1d 93 be 84 d8 2f 3d 4c fa 6c 3d e1 82 96 bd
       -0.2873354 0.042931095 0.05785589 -0.07349182
0001f0 39 cf 09 be ac 65 00 be b9 b3 d2 3d 88 0a 0b be
       -0.13457955 -0.12538785 0.102881856 -0.13578236
000200 be 80 c7 3b f9 46 9f bd 83 7f be bd 49 f7 4b 3d
       0.0060883453 -0.07777209 -0.09301665 0.049796376
000210 36 54 83 3c 6f c7 7e 3d d5 8d 44 be ef c7 ed bc
       0.016031366 0.062201913 -0.1919473 -0.029026
000220 f9 b3 74 bd 94 46 37 bd d4 43 00 3e dc a3 76 bd
       -0.059741948 -0.044745043 0.12525874 -0.060214862
000230 b3 2c a3 3c a2 25 91 bc a1 16 3b bd d6 29 f2 bd
       0.019918775 -0.01771814 -0.045675877 -0.11824386
000240 37 10 24 be af d5 c7 bc b3 16 d7 3d e3 03 d8 3d
       -0.1602181 -0.024393884 0.105023764 0.10547616
000250 1d ff 0b be f1 91 2e 3d 73 78 25 3c 35 5f 61 3d
       -0.13671537 0.04261965 0.010099518 0.055022437
000260 fa ea d2 3d ed f6 31 3e e0 08 89 be 05 4e ea 3d
       0.102987245 0.17379351 -0.26764584 0.11440662
000270 58 e3 7f bd 70 ca d6 bb 6b 72 4e 3c 0b ad 5e be
       -0.06247267 -0.006554894 0.012600522 -0.21745698
000280 bc 42 68 3d d6 25 21 3e b3 86 24 be 78 16 03 be
       0.056704268 0.1573709 -0.16067009 -0.1280154
000290 fc 2c 96 bd f2 2c 2e 3e de 00 7e be 6c 17 94 bd
       -0.07332799 0.17009333 -0.24805018 -0.0723103
0002a0 f5 5b 3c bc 0b b3 da 3d 36 24 d4 3c fb b2 8d bc
       -0.011496534 0.10678681 0.025896173 -0.017297259
0002b0 ba 61 3a 3e 32 2a e4 bd 88 8e 07 bd b5 94 03 be
       0.18201342 -0.111408606 -0.033094913 -0.12849696
0002c0 38 43 18 bd 8f dd 1a 3c d0 fc cb bd 47 c4 62 bc
       -0.03717348 0.009452238 -0.099603295 -0.0138407415
0002d0 1a 27 e4 3d e5 4e ea bd 3a b1 52 3d da c6 24 bc
       0.111402705 -0.11440829 0.051438548 -0.0100571755
0002e0 e8 fe 26 be c9 a6 f4 3a 3c 1b e9 3d 45 c9 11 3d
       -0.16308177 0.0018665429 0.11382148 0.035592336
0002f0 9c d5 4e be da de ec 3b 15 8e 1f 3e b9 fa ac 3c
       -0.20198673 0.0072287144 0.15581544 0.021115648
000300 0c 98 24 bc 2b 8a 8f bd b4 cf 80 3d 2d 23 0d be
       -0.010046016 -0.07008775 0.06289616 -0.1378295
000310 4a 4c fd 3d 45 07 9a 3d 03 12 ad 3c c5 85 25 bd
       0.123680666 0.07520918 0.021126753 -0.040410776
000320 fd 06 e1 bd d5 a8 05 3d 23 fb 4c bd e1 2a bf be
       -0.10987661 0.032631714 -0.05004419 -0.37337402
000330 79 d5 bf bd 8a 65 81 3d 21 af 6a bd 58 bc 14 bc
       -0.093668886 0.06318195 -0.057295922 -0.009078108
000340 d2 9a 41 bd a0 04 2d 3d 82 ec e1 bd 4e 65 89 3d
       -0.04726679 0.04224074 -0.110314384 0.067087755
000350 8e e8 2a bd 17 4d da 3d 60 0d 91 bd 64 42 a9 bd
       -0.041725688 0.10659235 -0.07082629 -0.08264616
000360 73 32 2b 3e 0f d1 fb bd 9f 75 ef 3d 65 81 7c bd
       0.16718464 -0.12295734 0.11692356 -0.061646838
000370 b3 b1 5c bc 8d d5 a2 bc fa 86 07 be 5b 4d f3 3d
       -0.013470101 -0.01987722 -0.13235083 0.11879989
000380 68 5b 04 3e 5a 8d 15 be 73 32 fb bd 0e af f1 3d
       0.12925494 -0.14604703 -0.12265482 0.11800967
000390 00 0c 55 be 8b 3c 6d be 04 d4 0e 3e ae ae e7 3d
       -0.20805359 -0.23167627 0.13948065 0.113126144
0003a0 45 56 8b bd 4f 40 84 bd 9d 02 91 bc 19 2e 8d 3d
       -0.06803564 -0.064575784 -0.017701441 0.06893558
0003b0 20 53 d3 3c 31 6b b9 3c 1b 6e 6b 3c ca 60 98 bd
       0.025796473 0.02263412 0.014369513 -0.07440336
0003c0 f2 6a c6 3b 2a f3 cd 3d 11 eb a3 3c d1 ab 5d bc
       0.0060552293 0.100561455 0.02000955 -0.013529734
0003d0 d0 91 33 3e 36 61 3f bd 46 46 39 3d d8 2a e3 bd
       0.17536092 -0.046723567 0.045233034 -0.11092156
0003e0 b7 82 0c 3d 6d 1f 32 be 39 ea 91 bd 76 71 ea bc
       0.034304347 -0.173948 -0.071247526 -0.028618556
0003f0 55 3c c1 bc ef e6 3a be f3 9a 73 3d ae 9c 88 bd
       -0.023588339 -0.18252157 0.059473943 -0.06670509
