Assets/RollerBallLife 2.onnx (onnx, 100545 bytes, 7 tensors)

39 f4 [1, 2]
000000 aa ff e1 be 14 84 17 bf
       -0.4414037 -0.5918591

distribution.mu.bias f4 [2]
000000 94 4b 7b be 93 37 d3 bb
       -0.2454055 -0.006445834

distribution.mu.weight f4 [2, 128]
000000 01 3f 8c 3d e1 83 69 3d 78 d7 17 3e e2 73 f0 bd
       0.068479545 0.057010535 0.14828289 -0.11740853
000010 a3 a7 bd 3d 47 cc 46 3d 03 54 70 3d 29 a5 80 bd
       0.0926049 0.048534658 0.05867387 -0.06281502
000020 53 82 80 3d 03 2d e5 3d 65 86 20 bd 35 33 04 3e
       0.06274857 0.11190226 -0.03919067 0.12910159
000030 5d be 2c 3d f6 fb 70 3d 7d cc 82 bc 3b 84 8b 3d
       0.042173732 0.05883404 -0.015966648 0.0681233
000040 55 a3 b7 3c 21 de 08 3e 5e 83 e9 3d 77 9b f5 3d
       0.02241675 0.13365985 0.114020094 0.11992543
000050 bd 44 d6 3d 18 20 02 3e d0 8b e2 3d b3 5a c0 3d
       0.104623295 0.12707555 0.11061823 0.093922995
000060 da 6d 38 3e 6d ff cf 3d 4a bf fc 3d ec 5f df bd
       0.18010655 0.101561405 0.12341173 -0.109069675
000070 15 4d 35 3e 00 20 5e 3d 83 96 19 be df e6 45 3e
       0.17705186 0.054229736 -0.14998822 0.19326352
000080 5c 7f c0 3d 88 62 ed bc eb 7e d5 3d e5 4e 16 3e
       0.09399292 -0.028977647 0.10424598 0.14678533
000090 52 e8 9c 3d d4 ca 25 3d 51 60 27 3e 88 28 bd 3d
       0.07661499 0.040476635 0.16345336 0.09236246
0000a0 55 33 15 bd 7f 43 48 bd 43 ab f7 3d 97 04 96 3d
       -0.036425907 -0.048892494 0.120932125 0.07325094
0000b0 43 0c 34 3c f8 58 ed 3c be 04 fd 3c ab 79 2a 3d
       0.010989252 0.028973088 0.03088605 0.041619938
0000c0 4e b0 39 3d d1 dd 39 bd 2a 54 3f bc 52 4e c2 3d
       0.045334153 -0.045377556 -0.011677781 0.09487595
0000d0 df 63 09 3e 1c 8c 6d 3d 06 d4 af bd d1 4a 9f bd
       0.13417004 0.057994947 -0.08585362 -0.07777942
0000e0 56 b1 a5 3c 5f 8f 22 3d e2 0e 3e 3e 0e 15 06 bc
       0.020226162 0.03968751 0.18560365 -0.008183731
0000f0 c1 2b 40 bd 71 6e 42 3d 09 6e 05 3e 7d 49 1a 3e
       -0.046916727 0.047468606 0.13030256 0.15067096
000100 03 75 3d 3d 4d 3c 42 bd 67 95 4b 3d 60 92 1e 3d
       0.04625417 -0.04742079 0.049703028 0.038713813
000110 6b 93 21 3c 5d e1 02 3e 0f 70 69 3d 27 1b 83 3d
       0.009861807 0.12781282 0.056991633 0.06401663
000120 e7 2f 41 3e b7 d8 70 3d 38 4d 0f 3e 07 b9 0a 3e
       0.1886593 0.058800425 0.139943 0.13547145
000130 d7 f3 40 3e 83 8a 64 3e c3 74 06 3d e2 ec 30 3e
       0.18843018 0.22318463 0.032826196 0.17277864
000140 c8 f9 d4 3c 1c 0b 30 bd 85 f0 24 3e 41 a3 d4 3d
       0.025998011 -0.042979345 0.16107376 0.10382701
000150 fc af 01 3e 6c 75 e6 3c fe dd 60 3e 20 6f a2 3d
       0.12664789 0.028132163 0.21959683 0.07931352
000160 9d 17 cf bd 5f 11 c7 3d e9 e8 82 3d 3c 2b ad 3d
       -0.10111926 0.0972011 0.0639208 0.08455512
000170 3f 46 c5 ba 43 d3 1e 3e 14 ea 9c 3d 97 fa ba 3d
       -0.0015050842 0.15510277 0.07661834 0.091298275
000180 3b 98 da 3d 53 09 96 3d b3 ca f9 3d 29 97 52 3e
       0.10673567 0.07325997 0.12196865 0.20565476
000190 61 42 0f 3e 61 13 db 3d 0f d8 dc 3d 43 a5 db 3d
       0.13990165 0.106970556 0.107833974 0.107248805
0001a0 b9 81 25 3e 32 31 b2 3d e2 7c 2b 3e 4f 55 8a 3d
       0.16162767 0.087007895 0.16746858 0.067545526
0001b0 a0 f9 7c 3d 18 c9 23 bc 8b 3a 40 3e 75 de 40 3d
       0.0617615 -0.009996675 0.18772332 0.04708715
0001c0 cf 1b 22 3e 7e 27 6e 3d 46 8b 11 3e 4b 92 5e 3d
       0.1583092 0.05814313 0.14213285 0.054338735
0001d0 6c 7b b3 3d d5 cd e7 3d 1f dc 0e 3e bb 9e 4f 3e
       0.08763775 0.11318556 0.13951157 0.20275395
0001e0 f4 8c 7e 3d e1 41 28 3e 80 8d eb 3d 5f 82 cf 3d
       0.062146142 0.16431381 0.11501598 0.10132288
0001f0 13 af 1f 3e ea b9 96 bd 78 25 82 bd fd 28 0b bd
       0.1559413 -0.07359679 -0.06354803 -0.033974636
000200 21 72 00 bc c3 70 88 bd 61 8a a1 bd f3 ec 9f 3c
       -0.00783971 -0.066621326 -0.07887722 0.019522166
000210 91 f4 a8 bd 86 00 23 bd f7 7e fd 3d 6b 3b 05 3c
       -0.08249772 -0.03979542 0.12377732 0.008131842
000220 f8 7c a4 3d ac 1e 33 bd a7 da 1b 3d 05 8a 88 bd
       0.080316484 -0.043730423 0.03805032 -0.0666695
000230 4d 45 94 bc b1 1a 80 bd 89 c3 21 3e 03 38 5e 3c
       -0.018099451 -0.06255091 0.15797247 0.013563159
000240 4c 45 a7 bc 4d 4c 99 bd 5d 1c 89 bd f2 ad d3 bd
       -0.020418786 -0.07485256 -0.06694863 -0.10335912
000250 a2 89 02 be 8b 5a 6a 3b 69 6e db 3c 68 e3 92 bd
       -0.12747815 0.0035759534 0.026786046 -0.071722806
000260 ee a7 8f 3b a8 ec 16 be db f8 cd bd 5a 08 9d bd
       0.0043840325 -0.14738715 -0.10057231 -0.076676086
000270 73 89 6c 3d 6b 47 e2 bc f7 fd 71 bd 4e 5e 98 bd
       0.05774827 -0.027621945 -0.05908009 -0.07439862
000280 3d 4b 3a bd 6f 6e 41 3d 8e a5 19 be 3e 4b bb 3d
       -0.04548191 0.04722446 -0.1500456 0.09145211
000290 f2 3c 69 bd 46 12 bf bd 02 84 5e bd cf de 44 bc
       -0.056942888 -0.09329657 -0.05432511 -0.012016012
0002a0 cb aa 94 bd 60 56 9d bc 9c 3f 8d bd ab 72 4b ba
       -0.07259139 -0.019206226 -0.06896898 -0.00077609223
0002b0 dd 67 21 bd eb c2 d2 bb d9 a7 cf bd 08 df 4b 3c
       -0.039405692 -0.0064319274 -0.10139436 0.0124433115
0002c0 55 31 b3 bd 85 db 19 be e8 1f 0e 3d 0d 8d 58 bd
       -0.08749644 -0.15025146 0.034698397 -0.05286889
0002d0 99 02 be bd 77 32 63 3d 91 74 d0 bd ec 00 b8 bd
       -0.09277839 0.05546805 -0.10178483 -0.08984551
0002e0 c6 d2 3c bd ac 92 ca bc d0 6b dd bd 42 e3 98 bd
       -0.046099447 -0.024728142 -0.10811579 -0.07465221
0002f0 6a 5c 98 bd ab 1b 16 bd 88 52 3c bc b1 56 a0 bd
       -0.074395016 -0.03664748 -0.011494286 -0.07829035
000300 84 2b 6c bd 4e 5a 59 3c 78 75 df bc 83 7b 57 3b
       -0.057658687 0.013266159 -0.027277693 0.0032880015
000310 ba 94 57 be e7 45 fb 3c 5a 4f af bc 0e 3b 59 bd
       -0.21052828 0.03067298 -0.021400142 -0.053034835
000320 1e 44 83 bd d6 4a 92 3b 6b fb d0 3b 2a c1 f9 bd
       -0.06409477 0.0044644875 0.0063776276 -0.12195046
000330 0f 75 3d 3d 64 bd a5 bd 89 6e 03 3d 1e 07 47 3c
       0.046254214 -0.08092764 0.032087836 0.012147693
000340 2d 32 8f bd cd a6 d4 bc 0e 30 91 bc a2 8a 91 3b
       -0.06991992 -0.025958443 -0.01772311 0.004441575
000350 3e c8 01 be 33 96 a1 bd f2 df 55 bd 0e fc 2c bd
       -0.12674043 -0.07889976 -0.052215524 -0.042232566
000360 26 1a c3 3c 05 7d 9f bd 70 5b 1f bd cc 24 ad bd
       0.02381618 -0.077875175 -0.03890556 -0.08454284
000370 72 1c ac 3d 8c 8c 99 bd c2 7f aa bd 55 01 1c be
       0.08403863 -0.0749751 -0.08325149 -0.15234883
000380 99 b1 e2 bc 70 45 fd bd 98 d5 d8 3c de 22 79 bd
       -0.027672576 -0.1236676 0.026469037 -0.060824268
000390 9b 8a bf bc 26 20 03 be 67 06 cc 3d 1d e8 ae bd
       -0.023381522 -0.12805232 0.09962159 -0.08540366
0003a0 31 d3 de bc a8 22 bc bc 8a d3 ca bd bf 5c b7 bc
       -0.027200313 -0.022965744 -0.09903629 -0.022383092
0003b0 61 48 2b bd 8e e0 e3 bd 1f 79 06 be fe c2 4e 3d
       -0.041817073 -0.11126815 -0.13132142 0.050478928
0003c0 75 56 c3 bd 54 2a 55 3d ad cf 95 bd 22 af 89 3d
       -0.09537975 0.05204232 -0.07315002 0.06722857
0003d0 cc 70 84 bd de 88 94 bd 05 e2 44 bd 1f 86 11 be
       -0.06466827 -0.07252668 -0.04806711 -0.1421132
0003e0 8c 44 d8 bc 58 e8 0f bc 27 d3 f4 bb 14 e4 30 bd
       -0.026399873 -0.008783422 -0.0074714604 -0.043186262
0003f0 7b d2 31 bc d6 2c 36 be cc f6 78 3c 1a 09 49 bd
       -0.010853405 -0.17790541 0.01519556 -0.049080946

network_body.linear_encoder.seq_layers.0.bias f4 [128]
000000 fc 7e 81 bc 9f 7e df 3d a4 e5 06 3e 91 19 f9 bb
       -0.015807621 0.10912823 0.13173538 -0.0076019247
000010 b7 66 62 3d 60 cd c6 bd 76 0e cd bd e0 d6 4f bd
       0.055273738 -0.09707141 -0.10012524 -0.05074203
000020 59 15 30 bc 50 ca 87 3d 82 5a 00 be df bf c1 bc
       -0.010747277 0.06630385 -0.12534526 -0.023651062
000030 ff 92 8b bb 1e 63 e8 bd 55 2d 9e 3d 62 21 7e bd
       -0.0042594667 -0.1134703 0.0772349 -0.062043555
000040 4b 57 1b bd e1 d2 96 bd 46 c6 7f 3d 7b 0c a3 bd
       -0.037925046 -0.07364441 0.062444948 -0.07961365
000050 ce 05 2e be fc 72 62 3b fa 97 08 be db a5 92 3d
       -0.16994402 0.00345534 -0.13339224 0.07160541
000060 4e b0 8c bb 44 a4 6f bd 7d 55 0c be e2 37 5d bd
       -0.004293478 -0.058506265 -0.13704486 -0.054008372
000070 0f b6 ec bd 14 3f 59 bd 26 d6 5a 3c f9 61 fd 3b
       -0.115581624 -0.05303867 0.013356721 0.0077326265
000080 8d 89 9b bd d7 4e 73 ba 9f 47 80 3d d8 b0 bb bd
       -0.07594595 -0.00092814624 0.06263661 -0.0916459
000090 04 e9 85 be 1a c1 05 bd 9d 91 bc 3b 3a 1f 76 3c
       -0.2615434 -0.03265486 0.005754663 0.015022093
0000a0 22 10 37 3c 29 25 98 bd 00 07 8f bc 63 d0 ef 3d
       0.01117328 -0.07428963 -0.017459393 0.117096685
0000b0 61 06 d6 bc 81 55 11 bc 2e da 75 3d c4 4c ca 3d
       -0.026126089 -0.008870483 0.060022525 0.09877923
0000c0 b2 5c f3 bc a1 a5 66 bd 30 07 92 3a 7f 86 33 3c
       -0.029707287 -0.0563103 0.0011141058 0.010957359
0000d0 c2 50 63 3d 72 72 20 bd c4 13 99 3c 65 e1 00 3a
       0.05549694 -0.039171644 0.018686183 0.0004916399
0000e0 cd 69 07 be ed ac 2e 3d 7d 74 c4 bc 5b b7 16 bc
       -0.13223954 0.042645384 -0.023981327 -0.009198989
0000f0 8b 31 e3 bc 98 df 4b bd d5 32 49 bd e9 2d dc bd
       -0.027733585 -0.049773782 -0.049120743 -0.10750944
000100 08 cc 57 bd 82 e9 30 3d b7 d4 6c bd 2b 42 84 bd
       -0.052684814 0.04319144 -0.05782005 -0.06457933
000110 22 ba c3 3c 41 64 93 bd 89 61 b4 bd ce 6b 8d bd
       0.023892466 -0.07196856 -0.08807666 -0.06905328
000120 7f 52 0d 3d bc 25 9e bb cf 15 9f 3d c2 65 c0 3d
       0.034502503 -0.0048262756 0.077678315 0.09394409
000130 05 11 96 3d 5b 3d 02 3e 4b 0a df bd 6c f7 aa bd
       0.07327465 0.12718718 -0.10890635 -0.08347973
000140 f9 e8 32 3d 5b a7 2f bd 99 21 9e 3d 2f cc 78 bd
       0.04367921 -0.042884212 0.07721252 -0.0607416
000150 37 00 f0 bc e2 ab 9d 3d 08 1b 1b be 67 88 9c 3a
       -0.029296977 0.076988 -0.1514703 0.0011942507
000160 37 79 31 be ab ad 3f 3c 85 01 9c bd 60 81 d2 bd
       -0.17331396 0.0116991205 -0.07617477 -0.102785826
000170 e6 80 d0 bc 4d 31 ac bd 00 96 b0 3c bf 09 4c be
       -0.025452089 -0.08407841 0.0215559 -0.19925593
000180 f2 95 37 bd c5 fd d1 bd f5 65 3b 3d 08 04 19 bd
       -0.044820733 -0.10253481 0.04575153 -0.03735736
000190 c6 24 71 be f6 a6 ca bc ad 60 bd 3c 04 b4 23 be
       -0.23549184 -0.024737816 0.023117388 -0.1598664
0001a0 f9 90 21 be 08 76 d7 bd 77 87 20 bd d0 86 fd bd
       -0.15777959 -0.105205595 -0.03919169 -0.12379229
0001b0 a5 f8 56 bd 02 3d 50 bd b0 4e 00 be 3d 9e 45 bd
       -0.05248322 -0.05083943 -0.12530017 -0.04824661
0001c0 e0 61 e5 bd d0 22 6b 3c a4 98 14 be 9e d5 64 bd
       -0.11200309 0.014351562 -0.14511353 -0.055867784
0001d0 9d 71 44 be b1 a3 ac 3d 62 b9 45 bc 40 84 8d bd
       -0.19183965 0.08429659 -0.0120681245 -0.0690999
0001e0 84 44 8a 3d 09 f8 b8 bc c5 fd 89 bc 73 b5 94 bd
       0.067513496 -0.02257921 -0.01684464 -0.07261171
0001f0 3f f9 f1 3d 40 43 77 bd 73 11 33 3e 00 e0 15 bc
       0.11815118 -0.06036687 0.17487125 -0.009147644

network_body.linear_encoder.seq_layers.0.weight f4 [128, 61]
000000 12 82 87 3e 70 06 a7 3e b2 f5 90 be b2 6b 3b 3d
       0.26466423 0.326221 -0.2831245 0.045757003
000010 7f ac b6 be cd 58 4b be da e1 42 bd f7 29 16 3e
       -0.3567848 -0.19858094 -0.04757867 0.14664446
000020 a0 aa e5 bb 33 92 7a bc 90 11 b3 3d 3b b9 f9 3c
       -0.0070088655 -0.015293646 0.08743584 0.030483833
000030 60 7f 4c 3d 36 13 9e 3e f7 e5 d1 3d c3 50 e9 3d
       0.04992616 0.30874032 0.102489404 0.11392357
000040 ba e5 92 3d e3 67 65 be 1e 39 b3 bd e2 79 ec 3c
       0.07172723 -0.22402911 -0.087511286 0.028866712
000050 9c 49 84 3d 9d aa 4d bc 67 51 af 3c e8 69 4d be
       0.064593524 -0.012552884 0.02140112 -0.20059931
000060 53 5a 30 3d 8c 0b fe ba 68 cc dc bd 8f 96 64 3e
       0.04305489 -0.0019382103 -0.10781175 0.22323059
000070 d7 46 c9 3d c8 aa 7e bb 88 ec e1 3c 8a 27 8a be
       0.09827965 -0.0038859118 0.027578607 -0.2698329
000080 88 91 ab 3e 54 a8 fb 3c 24 0b 14 bd 24 82 0f bd
       0.3350947 0.030719914 -0.036143437 -0.03503622
000090 6f a8 03 3e 8c b0 15 bc 92 55 5f bd e5 15 4d be
       0.12857221 -0.00913633 -0.054524966 -0.20027883
0000a0 d0 0a b6 bd f1 52 a3 3d 8e 80 e1 3d 96 4f 83 bd
       -0.08888781 0.07974804 0.11010848 -0.06411664
0000b0 3f 2a 98 3d a5 a4 32 3e bc d0 39 3e 5e 0f e0 bc
       0.07429933 0.1744562 0.18146032 -0.027351078
0000c0 55 b2 c2 bc df de 39 be 90 31 6b 3e bd 01 a3 bd
       -0.023766676 -0.18151425 0.22968125 -0.07959316
0000d0 ef 06 a1 be 49 4a cc bc 6c 3d 2a be a8 c5 fd bd
       -0.31450602 -0.024937766 -0.16624993 -0.123912156
0000e0 ff 3b 59 be 60 ac e6 bd 88 c2 c0 3b de e5 12 3e
       -0.21214293 -0.11263347 0.005882565 0.143455
0000f0 26 4e 90 3e fa 30 9b 3e ad ba cd bd f5 92 1b 3e
       0.28184623 0.30310804 -0.10045371 0.15192778
000100 e8 42 d6 3d b4 ac 3a 3e 75 c4 89 be ea 9f 41 3e
       0.1046198 0.18229944 -0.26907697 0.18908659
000110 3c ab e9 bd 49 65 8f bd 1d 66 8c 3c 9c 9b 06 3e
       -0.114096135 -0.070017405 0.017138535 0.13145298
000120 6c 0a 48 be 66 64 77 3e 23 e0 72 3c 95 d0 05 3d
       -0.19535226 0.24159393 0.014823946 0.032669622
000130 e7 d7 81 3d 3c d7 20 3e 40 60 da 3b 2c 36 b2 3d
       0.06340008 0.15707105 0.006664306 0.08701739
000140 0d af 25 be 43 02 43 3e 21 d9 c6 3d ee 56 b7 bd
       -0.16180058 0.19043832 0.09709383 -0.089521274
000150 e9 d8 cd bd be 9b 7f 3d 1e 31 6f 3e 80 69 57 3d
       -0.10051138 0.062404387 0.2335858 0.052590847
000160 8d 15 37 bb 85 b3 26 bd 68 9f 64 bd cb 10 9d be
       -0.002793643 -0.040698547 -0.055816084 -0.30676875
000170 f3 21 e8 bd 4b 18 a4 3e 21 c3 a0 3d 9a 04 fc bd
       -0.113346 0.32049784 0.07849718 -0.12305565
000180 75 7f 3d bb 71 53 dd bc 73 2b 09 3e 5f e9 ab 3d
       -0.0028915082 -0.027017327 0.13395481 0.083941214
000190 f9 9f c0 3d 4d d7 5b be 52 8b 00 3e c4 46 1a 3e
       0.09405512 -0.2146885 0.12553146 0.15066057
0001a0 b3 e9 22 3e 41 6e 74 3d e1 9f 42 be 22 1a dc 3c
       0.15909462 0.05967546 -0.19006301 0.02686793
0001b0 e6 68 2a 3e 26 3d 87 3e 41 29 8b 3d 5e 03 27 be
       0.16641578 0.2641384 0.06794978 -0.16309878
0001c0 4b 62 52 3e 1e 29 97 bd 41 8d 0e 3e be 57 04 3e
       0.20545308 -0.07380889 0.13921072 0.12924096
0001d0 5a 51 f3 bd 3c cf b9 bd 32 ae 96 3e b4 5f 27 be
       -0.11880751 -0.0907273 0.29429775 -0.16345102
0001e0 8c 15 f9 3c 03 7f a4 3d 79 43 c4 3d 4d 83 a6 3e
       0.030405782 0.08032038 0.09583182 0.3252205
0001f0 de b4 13 3e 9b 8f da 3b fc ce 1f be f5 f7 d1 bd
       0.14424464 0.006669951 -0.15606302 -0.10252372
000200 4e 6c aa bc 0f bf 55 bd 89 b1 0f 3e 46 1c 8a 3e
       -0.020803597 -0.05218416 0.14032568 0.26974696
000210 99 84 21 3e 63 47 ea be 06 a3 70 3e 3d 9d a0 bd
       0.15773238 -0.4575759 0.23499689 -0.07842491
000220 2a e8 12 3e f7 e5 bf 3e b0 1b 47 bc 2d 19 2f bc
       0.14346376 0.37480137 -0.012152597 -0.010687155
000230 18 d6 17 3d bd 35 42 3e 39 f3 29 3e 9e a6 24 bd
       0.03706941 0.18965812 0.16596688 -0.04019796
000240 58 74 81 3e db 0a 3f be e3 46 71 3d e3 18 26 3e
       0.25284076 -0.18656485 0.058905493 0.16220431
000250 d8 63 55 bd d6 c3 bd 3c 6c 99 0f 3c b6 3a d7 3d
       -0.05209717 0.02316467 0.008764606 0.10509245
000260 82 3b dc 3d c7 d2 1f be 3c 4c 85 3d 65 2c 72 3e
       0.10753538 -0.15607749 0.06508681 0.23649748
000270 07 6e 5d 3e 06 de 98 3e d7 ef fe bd c1 b2 bf 3e
       0.21624003 0.2985689 -0.124480896 0.37441066
000280 4c 5f 7e 3e f9 71 6a 3e e9 d7 08 be 8c 64 4f 3d
       0.2484104 0.2289504 -0.13363613 0.050633
000290 95 cf c4 bc 3c f5 40 bd dd 21 6e 3e 2f 6d fe bd
       -0.024024764 -0.047108874 0.23255105 -0.12423169
0002a0 94 44 b9 3d 35 2f a0 3d ea b0 ab bc 46 99 59 3e
       0.09046283 0.07821504 -0.020958383 0.21249875
0002b0 4e 85 6a 3e aa 5a 9a 3e ff 0a dd bc d0 cb 6b 3e
       0.22902414 0.30147296 -0.026982782 0.23026967
0002c0 6b ae 4c 3d ab 42 91 be 1c ea 3b 3e 52 65 0f 3e
       0.049971025 -0.28371176 0.18351024 0.14003494
0002d0 80 11 8e 3d 59 57 87 3e b6 b1 da bc df c3 3c be
       0.069369316 0.26433828 -0.026696067 -0.18434094
0002e0 bb 94 9c 3d a7 9f 06 3e 08 39 64 be 7b 2c e7 bd
       0.076455556 0.1314684 -0.2228738 -0.11287781
0002f0 de c0 d2 ba 64 5c 2c 3e 22 8e 81 bc 66 5a e0 bb
       -0.0016079207 0.16832119 -0.015814845 -0.006846714
000300 dc ff db bc 31 ad ee 39 5c 70 0a 3d 20 b3 90 be
       -0.026855402 0.00045523935 0.03379856 -0.28261662
000310 cd 7c 46 3e bd 68 e4 bd b5 fb 09 be 3f a8 9c 3e
       0.19383545 -0.1115279 -0.13474925 0.30597112
000320 cc 61 a4 bd 78 c2 9e be db 91 b6 3d 31 33 5d be
       -0.08026466 -0.31007743 0.089145385 -0.21601559
000330 36 ee cd 3d e8 8e 04 be 5e 06 5e 3e e1 c6 b5 3e
       0.10055201 -0.1294514 0.21682116 0.35503295
000340 74 25 67 3e 72 72 05 bf 60 f2 31 3e 0a 8b 2d 3e
       0.22572881 -0.52127755 0.17377615 0.1694757
000350 89 9d 17 be 4c 39 12 be 0f 6a 9f 3d 14 71 25 be
       -0.14806189 -0.1427967 0.07783901 -0.16156417
000360 e7 ec fc 3b c1 e8 d1 3e 6b 09 37 be 3e 5a 93 be
       0.0077186706 0.4099789 -0.17874686 -0.28779787
000370 df dd 91 bd 34 a3 9f 3e c2 ab ea 3d 89 54 2f 3d
       -0.07122397 0.31179202 0.114585415 0.04280523
000380 f5 26 5b bd d1 e3 67 bd e9 0e b8 3e 7c 11 bd 3e
       -0.05350395 -0.056613747 0.35948876 0.36927402
000390 f1 6f bd bd f6 91 02 be ee be 2d bd cf ae 85 3e
       -0.09249867 -0.12750992 -0.042418413 0.2610993
0003a0 16 78 9e 3e d9 53 8b be 25 00 b8 be 0b ce 89 be
       0.30950993 -0.27212408 -0.3593761 -0.2691501
0003b0 2e e8 12 3e db 89 e2 3d f9 4a dd bd 4c 35 4e 3e
       0.14346382 0.1106145 -0.108053155 0.20137519
0003c0 9d 9b 1c be e5 c1 0d 3d 51 3c 93 3e ee ff 28 3e
       -0.15293737 0.03460874 0.28756955 0.1650388
0003d0 9d 98 31 be cc fe bb bd ad 7d 92 bd 8f 5b 44 3e
       -0.17343374 -0.09179458 -0.07152877 0.19175552
0003e0 0b 26 54 3e cf dc 29 be 36 92 a9 3d 0a fa b3 bd
       0.20717637 -0.16588138 0.08279841 -0.087879255
0003f0 bc 5a 56 3d 6a e8 40 3d c9 a3 48 3d b8 a2 16 be
       0.052332625 0.047096647 0.048984323 -0.1471051

network_body.linear_encoder.seq_layers.2.bias f4 [128]
000000 44 cd a7 3c ff b9 a9 bc 72 75 62 3d 18 bb 02 3e
       0.02048362 -0.020718573 0.055287786 0.12766683
000010 91 66 1e 3d 82 db 46 bc f6 e4 98 3c d5 a3 fe bd
       0.038672034 -0.012137296 0.018663865 -0.12433592
000020 56 11 b9 3c 9b 74 01 3d bc 64 47 be 52 5f 02 bd
       0.022591274 0.031605344 -0.19472021 -0.031829186
000030 f6 e4 3c bd 73 1c a0 3c a6 be 6d 3d bd b7 57 bc
       -0.04611679 0.019544816 0.058043145 -0.013166365
000040 f7 c8 8a bd f4 d8 98 3c bd 8b d1 bc b7 3e 83 bc
       -0.06776612 0.018658139 -0.025579328 -0.016021116
000050 8f d3 9d ba f2 41 e6 bc 9c 15 2e bd 9c 75 18 3d
       -0.0012041199 -0.028107617 -0.042501077 0.037221536
000060 bb d9 61 3d 20 8a 2b bd a3 20 cd ba 48 d7 00 3d
       0.055139285 -0.041879773 -0.0015649985 0.03145531
000070 ef 2a 8f 3d b3 a4 4c 3d af c8 09 3e 6d f8 78 ba
       0.06990611 0.049961757 0.13455461 -0.00094974675
000080 0a f9 26 bd 2c 7d 8d 39 7a 14 8f bc 35 51 f5 3c
       -0.040764846 0.00026986876 -0.017465819 0.02994595
000090 f2 5e b1 bc f4 f7 b3 bd 5d 01 48 bc 88 8d 86 3c
       -0.021651719 -0.08787528 -0.012207356 0.01642491
0000a0 18 38 a5 bd 33 3f 8d bc 5a 8c 12 bd 0e 93 0a 3c
       -0.0806734 -0.01724205 -0.03577838 0.008457912
0000b0 b3 ae 4c bd ac 7a a1 3c c4 5f 99 bd 66 ae 26 bc
       -0.049971294 0.019711815 -0.07488969 -0.010173416
0000c0 f2 78 79 bd 8c 7e 1b 3d f5 32 53 3c 1e 23 fb 3b
       -0.060906358 0.03796248 0.012890567 0.0076640984
0000d0 95 63 da ba b1 57 f0 bc 4e 1a 28 bd bd 41 1c bd
       -0.0016661758 -0.02933869 -0.04104071 -0.03814863
0000e0 95 54 91 bd 4f 0e 04 be 92 30 81 3d 08 a3 98 3c
       -0.07096211 -0.12896083 0.06308092 0.018632427
0000f0 2b 0d 59 3d 77 3f c6 bd 84 fa 1a bb 1e 3e 9f 3d
       0.052991074 -0.09680074 -0.0023647854 0.0777552
000100 39 65 22 3d f4 10 03 be 2b 77 04 bd 81 3b 47 be
       0.039647315 -0.12799436 -0.03234021 -0.19456293
000110 9d dd 1f 3d fc 14 02 bc bb 5f 24 3b 32 b0 9a bd
       0.039029706 -0.007939573 0.0025081474 -0.07553138
000120 51 7e c7 3c 4c a8 cd bb 9b 8c c6 3c b0 6c 33 bd
       0.024352225 -0.006276166 0.024236968 -0.043804824
000130 87 bf 5c 3d 5a 8c b8 bb d6 bf f0 3b b0 9f b1 3c
       0.053893592 -0.0056319656 0.0073470874 0.02168259
000140 08 db 7a 3a b6 e1 48 bd 19 61 22 3d 91 cf 11 3c
       0.00095693814 -0.04904338 0.03964338 0.008899585
000150 18 6b 4b 3c e5 bf 41 3d 76 ba 97 3d 70 4e 91 bd
       0.01241567 0.047302146 0.074086115 -0.07095039
000160 27 c6 d2 bd 78 c3 0e bd 7d d8 ea 3c 2c e9 91 ba
       -0.10291701 -0.034854382 0.028667683 -0.0011132113
000170 e7 ea 0b bd 84 e1 e1 3d 19 a5 33 bd 7c c6 d2 bc
       -0.034159567 0.11029342 -0.04385862 -0.02572941
000180 d7 9c bb 3c b1 f9 39 bc 88 74 96 3a 79 5d 39 3d
       0.022901936 -0.011351035 0.0011478821 0.045255158
000190 52 43 4a 3c f8 05 87 bc df c7 10 3d 3b f4 a0 3c
       0.012345152 -0.016482338 0.035346862 0.019647708
0001a0 de 85 88 3b 1d 81 89 bc 67 a9 3b bb 7a 66 b0 bd
       0.004166349 -0.016785199 -0.0028634907 -0.08613296
0001b0 c4 b7 fd bc 96 c5 39 bd 22 c1 6d 3c 3e be db bb
       -0.030971415 -0.04535445 0.0145113785 -0.0067060282
0001c0 a4 13 61 3c f5 88 d9 3c 31 d5 a1 bc 4c df 1e 3c
       0.013737593 0.026554564 -0.019754978 0.009696793
0001d0 95 b0 ad 3d f7 c1 76 3c 6c 01 5c 3c 33 50 ea 3b
       0.08480946 0.015060893 0.013428073 0.007150674
0001e0 a5 42 b5 bd 3b f4 0d 3d 2b 48 b2 bb 9e 10 01 bc
       -0.08850602 0.034656744 -0.005440732 -0.007877497
0001f0 16 2a 29 3c 4b 66 f7 3c ba 16 f9 bc cd a7 96 bd
       0.0103249755 0.030200144 -0.030406345 -0.07356224

network_body.linear_encoder.seq_layers.2.weight f4 [128, 128]
000000 54 e7 b3 bc b9 e3 18 be bc 87 bf 3d 0c c9 b4 3d
       -0.021960892 -0.1493062 0.09352061 0.08827409
000010 61 29 2e be 6e 58 77 3c 4a 1c 02 3d 67 11 d1 3d
       -0.17007972 0.015096767 0.03176526 0.10208397
000020 27 8b 47 bd 1a e0 cd be 68 a3 a3 3d a6 20 e5 ba
       -0.04871669 -0.40210038 0.07990152 -0.0017481043
000030 9e 9c 37 3d 73 41 18 3e 68 37 5c 3a ec ae 05 3e
       0.044827096 0.14868717 0.000840059 0.13055009
000040 20 08 17 3e 30 5d bd ba 00 83 83 bd 2a c8 ae bd
       0.14749193 -0.0014447328 -0.06421471 -0.08534272
000050 d7 8f db bc ba 41 6f bd 44 09 b2 3d 26 59 74 be
       -0.026801987 -0.05841229 0.086931735 -0.23862132
000060 4f 98 d7 3d 6d 39 ad 3d 05 69 bb bd 78 99 71 bd
       0.105270974 0.08458219 -0.0915089 -0.05898425
000070 6b 19 c7 bd 2c 33 37 be c4 9e 3e 3e c8 d6 51 be
       -0.09721645 -0.17890614 0.18615252 -0.20492089
000080 7e 46 2d be 84 b7 18 3d 41 b9 e6 3d 04 f3 9f 3d
       -0.16921422 0.03728439 0.11265803 0.078100234
000090 ac fe 7d 3d 03 b9 8e 3d f0 5d 96 3d 88 09 4c be
       0.062010452 0.06968882 0.07342136 -0.19925511
0000a0 57 60 a5 3a d1 e3 cf 3c 7a e2 32 bd 1f 0b 06 bc
       0.0012617212 0.025377186 -0.043673016 -0.008181362
0000b0 2e 8d 83 be 2e 65 2b 3e 59 81 ed bd 13 a1 67 b8
       -0.2569365 0.16737816 -0.11596937 -5.5224704e-05
0000c0 56 21 99 be 79 8b ec bd 49 09 36 be 37 78 d7 bd
       -0.29908246 -0.1155004 -0.1777698 -0.10520976
0000d0 2d 1c d6 bd 32 12 aa be fe b8 1f bd 0a 47 d9 bc
       -0.10454593 -0.33217007 -0.03899478 -0.026523132
0000e0 f8 92 9e bd cb 95 83 bc 0a 0e 85 bd 97 87 af bd
       -0.07742876 -0.016062638 -0.06496818 -0.085707836
0000f0 23 09 93 bd aa 7c 39 3d 2a fd c4 bd f6 c9 14 bd
       -0.07179477 0.045284905 -0.096186 -0.036325417
000100 26 27 19 bd 61 9d 5f be 5c 44 6f 3d 65 59 3b bd
       -0.03739085 -0.21837379 0.058414802 -0.04573955
000110 ce a6 06 be b2 5d ee bd 70 42 1d 3e 0b 79 21 bd
       -0.13149568 -0.11638965 0.15357375 -0.039422076
000120 53 40 f3 3d 0e b1 96 bd c6 57 8a be d3 c0 59 be
       0.11877503 -0.07357989 -0.2702009 -0.21264963
000130 7b a5 09 3e df aa 13 be 28 6e 46 3e ba 83 bd be
       0.13442032 -0.14420651 0.19377959 -0.37014562
000140 d7 b9 56 bc fc f7 0f be 6c 8f 63 3e 65 87 88 3d
       -0.013105831 -0.14059442 0.2222268 0.066664495
000150 56 a1 af 3d ba 83 8b be ac f3 37 3d 61 2e a1 3c
       0.08575694 -0.27248937 0.044910118 0.019675435
000160 56 70 16 be 4d c9 82 be 44 f8 d4 bd a3 c4 a3 bc
       -0.1469129 -0.25544205 -0.103989154 -0.019991225
000170 ea 60 bc bd e8 33 72 3d d2 22 e1 3c 13 e7 08 3d
       -0.091981724 0.059131533 0.027482424 0.033423495
000180 a6 00 c9 3d b8 fb 13 bc 4f 20 05 3e 1d 2f fa 3d
       0.09814577 -0.009032182 0.13000606 0.122160174
000190 f2 35 c3 bd 5a b4 f8 3d 88 10 dd bd 5e ab 35 bd
       -0.095317736 0.12143774 -0.10794169 -0.04435288
0001a0 37 a9 a0 be bb a9 2a be ad a3 cc bd 35 df 44 3b
       -0.313791 -0.1666631 -0.09992156 0.0030040268
0001b0 d9 aa 99 3b 6c 5a 5d 3d 7f d4 35 3d b0 7c a7 bd
       0.004689556 0.05404131 0.044392105 -0.08178079
0001c0 21 b0 2c bc 33 46 8b bd 7c 48 81 bd f4 ba ca bd
       -0.010540039 -0.06800499 -0.063126534 -0.0989894
0001d0 f3 d4 72 be c0 7e c8 3d 23 3d 90 be 35 26 4c be
       -0.23714046 0.09789801 -0.28171644 -0.1993645
0001e0 08 d1 ca 3d f3 63 2a 3c 3c 0e 03 3e 65 54 be be
       0.09903151 0.010399806 0.12798399 -0.37173763
0001f0 a3 0d 0c be 85 f0 6b bc a3 96 b9 bd de 6b 16 be
       -0.13677077 -0.014400606 -0.09061935 -0.14689586
000200 ce 76 ed bd aa 4a 97 bc 82 63 55 3e af c8 b5 bd
       -0.11594926 -0.01846822 0.2083874 -0.08876168
000210 98 fa 51 3d 64 c3 d4 bd 41 fd 25 be 1b 06 36 be
       0.051264375 -0.1038883 -0.1620989 -0.17775767
000220 e0 30 9c 3e 48 86 4c bd a8 21 19 3d 17 b5 8c 3e
       0.3050604 -0.049932748 0.037385613 0.2748191
000230 97 77 09 3e c6 c3 1f 3e 6d 04 a0 3d 31 81 b4 bc
       0.13424526 0.15602025 0.07813344 -0.02203426
000240 d1 21 7f bd 75 52 84 3d ca 45 38 3d db 57 2d 3d
       -0.06228811 0.0646104 0.04498843 0.042320114
000250 e3 70 90 3b ef b5 81 3c 80 a7 6e 3d 66 37 fc 3d
       0.0044079884 0.015833823 0.05826521 0.12315254
000260 c5 30 b2 bd 6c e6 b1 3c 77 c8 23 be fa 06 38 bd
       -0.08700708 0.021716319 -0.1599444 -0.04492853
000270 aa d0 56 3d df 1b ea bc ed d0 b3 3d 4d 76 20 3d
       0.05244509 -0.028577743 0.08780084 0.03917532
000280 95 87 61 3d da d7 02 3e cd b0 84 3d ff 7b d0 bc
       0.05506094 0.12777653 0.064790346 -0.025449751
000290 a8 c7 ea 3b 55 1b d4 3d 11 e5 84 3c 2f fc 89 3d
       0.007164914 0.10356776 0.016222509 0.06737553
0002a0 e5 2d ad be 1e 6a 2a bd 14 16 24 3e 7a 4a 75 bd
       -0.33824077 -0.041605107 0.16024047 -0.05988548
0002b0 9f cd 84 3e 18 58 5e 3d d6 7f 05 3e e5 58 6f 3e
       0.25938126 0.05428323 0.13037047 0.23373754
0002c0 24 f1 9f be 4a cc a3 bd 6b 47 90 3b 03 5e 93 3d
       -0.31238663 -0.079979494 0.004403045 0.07195666
0002d0 81 39 3d 3b 7d 13 09 3e 99 15 4c bd 42 71 14 be
       0.0028873386 0.1338634 -0.049825285 -0.1449633
0002e0 71 28 b9 bd 5f 28 8c 3e 4b 3e c7 bd 96 2a 93 3c
       -0.09040917 0.2737455 -0.09728678 0.017964642
0002f0 3a 3b af bd 57 72 82 3c df a2 bc bc 41 12 87 bd
       -0.085562184 0.015923662 -0.023026882 -0.065952785
000300 14 8c 92 3d f1 91 8d 3e a3 d4 e9 3c 8a c5 4b bd
       0.07155624 0.27650407 0.028543776 -0.049748935
000310 96 ce c7 bd e7 b9 41 be a5 67 7b 3d 65 75 6d be
       -0.097562 -0.18918572 0.06137814 -0.23189314
000320 9e fa e7 3d e0 94 8b bd 9f 25 59 3e 82 40 4c bc
       0.11327098 -0.06815505 0.21205758 -0.012466552
000330 37 38 c2 b9 2d b5 38 3e e4 85 7d 3d ce 92 68 bd
       -0.00037044447 0.18037863 0.061895266 -0.05678063
000340 0c 7e 02 3e 77 8c d3 bd fc de 80 be f0 b2 b1 bd
       0.12743396 -0.10329526 -0.25170124 -0.08676708
000350 f1 9e 30 3a d8 0c d0 bd 7b 56 1b be 82 bb 40 3e
       0.00067375513 -0.101587 -0.15169708 0.18821529
000360 0e a0 3d 3b 5f 92 1e bd 67 00 5b 3b b3 7b 83 bd
       0.0028934511 -0.03871381 0.0033416988 -0.06420078
000370 92 ee 4d bd 08 8f e5 bd 96 20 25 be f1 7b 36 be
       -0.050276347 -0.11208922 -0.16125712 -0.17820717
000380 bd bd a2 bd 86 e6 a8 3d e4 84 12 3e a9 15 32 3b
       -0.07946346 0.08247094 0.14308506 0.0027173555
000390 a4 0a eb bb 03 1c 90 bd 65 02 17 3e f3 66 96 bd
       -0.0071728993 -0.07036593 0.14747007 -0.07343855
0003a0 ce d2 15 be b0 04 73 bd ef 61 47 bd 2b 89 8d 3d
       -0.14631197 -0.059330642 -0.04867738 0.06910928
0003b0 47 cb 9f bd 55 d1 0f be 14 65 fb bc 5b cb 48 bd
       -0.07802444 -0.14044698 -0.030687846 -0.04902206
0003c0 82 ec f9 bc d0 14 f8 3d ac 08 08 3e 90 79 b7 bc
       -0.030508284 0.12113345 0.13284558 -0.022396833
0003d0 fa ac f7 bd 2f c2 c6 3c ed 22 88 3d d7 eb e0 3d
       -0.120935395 0.024262516 0.066472866 0.10982483
0003e0 ad 2a 02 bd 64 c2 23 3e 09 41 80 3e 40 54 65 3c
       -0.03177898 0.15992123 0.25049618 0.013997138
0003f0 32 5a 3a 3e 51 2c 89 bc f8 77 23 3e da 61 fd bd
       0.1819847 -0.016744765 0.15963733 -0.12372179
