Assets/RollerBallLabyrinth.onnx (onnx, 96449 bytes, 7 tensors)

39 f4 [1, 2]
00000000: 4c28 5dbf ba6e 62bf
-0.86389613 -0.88450205

distribution.mu.bias f4 [2]
00000000: b725 883d beaa 513a
0.066478185 0.000799816

distribution.mu.weight f4 [2, 128]
00000000: 023f ecbc 692b 103c 3ede 90bd 399b aabd
00000010: ebb3 b0bd 65ee 2ebd 06b7 96bd b77f c4bd
00000020: c9f7 4ebd b995 0fbe da2c 68bd d0a4 20bd
00000030: 707f 8ebc 6d88 8fbd bd8f 79bd 239c 2cbd
00000040: e86e 5bbd deaf 20bd d8f7 a0bd 2b62 143d
00000050: f7c5 0abe 81a6 9bbd 94dc 0bbe 0a1c f0bc
00000060: d10b 21bd 94cd 9cbd 945f 9fbd 6485 9bbd
00000070: 2327 dbbd efc5 833d c03e 1ebe ede5 bfbb
00000080: 433c 9ebd c494 8bbd 09a4 e1bd 7a92 9b3b
00000090: c170 12be af74 86bc 9c89 bcbd 0e7f 07bd
000000a0: b6e9 c4bd 5da1 85ba 0678 ecbd 6c96 e5bc
000000b0: 0f3b 85bd ac14 adbd 2b13 203c 7cc4 8bbd
000000c0: 684e babd 13c2 d3bd 975c d1bd e405 ddbd
000000d0: 0f90 c83b 1b97 f7bd 9074 d1bd 273b 203c
000000e0: 26b0 a2bd fa3b 43bd fdf0 23bd f13f fc3c
000000f0: 697c 48bc b519 3bbe 4adb cfbd 4c54 79bc
00000100: 565c b3bd d2b2 e6bd 0dad c9bd 017f d7bd
00000110: ca80 c4bd d40f e5bd 285e f7bd ad6e eabd
00000120: 3c93 d0bd f5ef a9bd 1a22 ebbd 1337 023c
00000130: 2daa 0fbe 450c 573c aa5f f6bd 1cd9 ffbd
00000140: 6f76 d63d c4c8 203d 3335 99bd 7529 6bbc
00000150: a5e7 d3bd 86ef 063d c4ba a0bc 9e5f d1bd
00000160: 7589 dcbd 04c8 0dbd ddbc edbc 1c9c f83a
00000170: 4936 9d3c e8e2 b2bd 4902 0cbe ee53 aebd
00000180: 89e4 bbbd f510 9c3d e9bd 97bd 1a9e 06be
00000190: 9868 d0bd 3225 0bbe 6027 aabd ee71 f4bd
000001a0: e94d a3bc a1a4 efbd 0205 6abd 3316 16be
000001b0: 61c6 d5bd 0fc9 d03b b61d bcbd 6242 c6bd
000001c0: 5d22 07be c93d 79bd 9346 f33d ad56 5dbc
000001d0: 358c d8bd 7298 8fbd d9ad 82bd c677 b0bd
000001e0: 3fc4 63be 893a ab3c dcb9 ff3d ae54 99bd
000001f0: 8bb4 b1bc 7ebe 36be 92ae b7bd edbe 15be
00000200: 2a5d a13d 1dcf edbd 947c 8bbc 1c75 00bd
00000210: 9f44 8abd 3e96 8bbd f0a1 cabb 9f06 04bb
00000220: 512d 45bd 3d80 863c df6a 31bd 3050 c1bd
00000230: 316b c93d fc40 dfbc a737 8ebd cc13 883d
00000240: 7be2 eabc aef1 d8bb e60f 633c 8945 af3d
00000250: 85d3 b3bc 5be2 4ebc 730f 57bd 2f46 6dbd
00000260: fd68 e1bd c22d 553d 81cc 853d 2f1b a3bd
00000270: b999 4cbd 7487 3fbd f5f7 2bbd ec61 9abb
00000280: c3ba 82bc f027 a7bd 9ed1 ecbc b809 b83d
00000290: 0aef a23c b43f 9bbc 6229 2ebd 2d61 53bd
000002a0: 580e 01bd be74 ccbd daa7 3cbd 6719 043e
000002b0: 9144 a3bd 1e03 b3bc be80 363d 6bc2 9dbd
000002c0: 6d49 b33c f03e 0ebd c061 27bd d9c9 42bd
000002d0: 784d c23d 1b1c edbc 458f b7bc 0137 26be
000002e0: e026 f3bd b9a2 c9bd de2f d6bd 21b6 24be
000002f0: 269e 0abd ff5b b5bd f7ee ca3d d5e1 f9bc
00000300: f87f dabc 1e88 09bc 5e7a 70bd f7a4 2dbd
00000310: 5504 84bd 29d2 26bb bf64 48bd 3643 483c
00000320: 6926 06bd cb99 debd 11f8 83bd e51d 37bd
00000330: 67de a63d 9492 16be 6201 56bd 68c4 26bc
00000340: a52b 3d3c cde5 92bd 0da8 06bd cd09 69bc
00000350: 8c8f 2fbd 44f8 c1bd 8afa f0bd 24a5 853a
00000360: d2ac 2e3d 521c b4bb 177b cdbd c17d 8f3d
00000370: bb92 19be a038 0dbd 3012 523b e6fd 873d
00000380: 77b5 553c 17e4 b03c a217 a6bc 31e2 c4bc
00000390: e4a2 7bbd 9947 0c3d bd0a 4e3d 4724 41bd
000003a0: 731c 7a3c c569 913a 2d87 2e3c 524b 22bd
000003b0: 0cfa 20bd a743 373d 09aa 9abd fe29 8dbd
000003c0: 7bc0 9bbc 7b49 9abc 9599 183d 7144 15bd
000003d0: 7075 9d3d ff1a dbbc 9549 5bbd a34c aebd
000003e0: 23eb 26bd 786d 94bd 59d7 26bd 90ca 08bd
000003f0: 9c5e 92bd 3d79 d7bc d21f 8f3d b3a4 52bc
-0.028838638 0.008799412 -0.07073639 -0.083303876 -0.08628067 -0.04270782 -0.07359128 -0.09594672
-0.050529275 -0.14021958 -0.0566834 -0.039219677 -0.017394751 -0.07008443 -0.060928095 -0.04214109
-0.053572565 -0.03923022 -0.078597724 0.036226433 -0.1355208 -0.076001175 -0.13658363 -0.029310245
-0.03931791 -0.076563984 -0.07781902 -0.075938016 -0.10700824 0.06434237 -0.15453625 -0.0058562667
-0.07726338 -0.06815484 -0.11017615 0.004747686 -0.14300825 -0.016413061 -0.092059344 -0.033080153
-0.09614889 -0.0010195185 -0.1154633 -0.028025828 -0.06505405 -0.084512085 0.009770195 -0.06824586
-0.09096986 -0.10339751 -0.10222738 -0.10792139 0.0061206887 -0.12089368 -0.10227311 0.009779728
-0.07943754 -0.04766462 -0.040024746 0.030792208 -0.012236693 -0.18271525 -0.10149248 -0.015217852
-0.08757846 -0.11264576 -0.0984746 -0.10522271 -0.09594877 -0.111846596 -0.12078506 -0.11446891
-0.10184333 -0.08297721 -0.11481114 0.007947701 -0.1402976 0.013125484 -0.12029965 -0.12492582
0.10471808 0.039253965 -0.0748085 -0.014353146 -0.10346917 0.03294327 -0.019620307 -0.10223316
-0.10768405 -0.034614578 -0.029020721 0.0018967423 0.019190924 -0.08734685 -0.13672747 -0.08512102
-0.09174449 0.07620422 -0.07409269 -0.13146248 -0.101762 -0.13588408 -0.083082914 -0.11935793
-0.019934611 -0.11701322 -0.057133682 -0.14656906 -0.104382284 0.0063716243 -0.091853544 -0.0968063
-0.13196702 -0.06084994 0.11878695 -0.013509435 -0.10573617 -0.070114985 -0.06380815 -0.08616595
-0.2224283 0.020901935 0.12486622 -0.074868545 -0.021692535 -0.17846105 -0.089688435 -0.14623614
0.07879098 -0.11611769 -0.017027177 -0.031361684 -0.0675137 -0.06815766 -0.0061838552 -0.0020145548
-0.04813892 0.01641857 -0.04331481 -0.09439123 0.09834898 -0.027252667 -0.069442086 0.06644401
-0.028672447 -0.0066206073 0.013858771 0.08558185 -0.021951446 -0.01262721 -0.052504968 -0.05792826
-0.11006353 0.05204559 0.06533147 -0.07964169 -0.04995129 -0.046760038 -0.041984517 -0.00471138
-0.015958196 -0.08161914 -0.028908547 0.08986229 0.019889373 -0.018951274 -0.042519934 -0.051606346
-0.03150782 -0.09983204 -0.046058513 0.12900315 -0.079720624 -0.021852072 0.044556372 -0.07703098
0.021885598 -0.03472799 -0.040864706 -0.04755578 0.09487432 -0.028944066 -0.022407183 -0.1623192
-0.11872649 -0.0984549 -0.10458349 -0.16085102 -0.03384223 -0.088554375 0.0990886 -0.030503193
-0.026672348 -0.008394269 -0.05871045 -0.04239365 -0.06446139 -0.0025454855 -0.048924204 0.012223056
-0.032751475 -0.108691774 -0.06443799 -0.044706244 0.08147889 -0.14704353 -0.052247413 -0.010178663
0.01154605 -0.07172737 -0.03287511 -0.014223528 -0.042861506 -0.09471181 -0.117665365 0.001019631
0.042645283 -0.00549654 -0.10033243 0.070064075 -0.1499738 -0.03447783 0.0032054298 0.06640224
0.013043753 0.021593137 -0.02027494 -0.024033638 -0.06143464 0.03424797 0.05030321 -0.047153737
0.015265572 0.0011094144 0.010652346 -0.039622612 -0.039300963 0.044742253 -0.07551963 -0.06892775
-0.01901268 -0.018833866 0.037255842 -0.036442224 0.07688415 -0.026746271 -0.05353697 -0.08510711
-0.040751588 -0.07247442 -0.040732715 -0.033396304 -0.071469516 -0.026302928 0.06988491 -0.01285665

network_body.linear_encoder.seq_layers.0.bias f4 [128]
00000000: 1e82 a5bd b564 42bd 9b2b d2bd 3bbb 833d
00000010: fe0d a6bd 291c 71bd d185 dabc f2d3 bfbc
00000020: 85f9 afbd aa82 35bd 1dbf 32bd 1690 81bc
00000030: 1803 cbbd 87a5 073d 294a 6a3c f658 1cbd
00000040: f06a aebd 17cd 813d 334d 1fbd d75d dcbd
00000050: c4ca d73d b6b3 733d e0e2 1cbe 53e0 65be
00000060: 09ae f7bd 2e2f 25bd 50fc 8c3a 9f45 3f3b
00000070: 500b a03d 0cc5 01be 4ed2 bebd c765 88bd
00000080: 5cb1 91ba 3bcb 91bd b51c cfbd 6652 a6bd
00000090: b13c c7bd 5b45 fdbd 831b 3dbe e000 83bd
000000a0: d33f c7bd 81bd a7bd fd86 fbbb 56c8 a13d
000000b0: 9788 03bd f74d 26bd 0677 85bd a73f 29bd
000000c0: 3874 c2bd f7a7 973d 0c1d 1ebd 0c30 81bd
000000d0: 9d2e ee3c 0ca3 5d3b 6ebe bbbc 1c25 953d
000000e0: dcb7 b9bb bf43 8bbd b676 0abc 7266 48bd
000000f0: 0e23 0ebd ebf3 d3bd 0e24 b2bd 2234 a7bd
00000100: e6c9 3ebd f45a cfbc 21d4 84bd 34a5 86bd
00000110: eb85 9dbb f53d 6a3b b75c 88bc 4c07 adbd
00000120: f957 a43d 0b82 663d 3eea 97bd f3e9 88bd
00000130: 84df f8bd 7066 4ebc d15c 75bd 0a89 98bd
00000140: 1928 3c3d 787e 71bd fd22 c1bc 2be4 323d
00000150: 59d2 45bd a4e5 6b3c 6c9d 02be af9a edbc
00000160: 4ca9 193c 80a8 51bc 00a1 c1bd c893 d03c
00000170: 282e 2abd 443e 76bd 360f 65bd dcd9 1fbd
00000180: 4428 efbd af96 cc3c 7ae9 44bd d1ec f2bc
00000190: 9ee3 99bd fb3a 27bd 5d48 d8bd 2a40 38ba
000001a0: 6d9e abbd 3f2f 84bb 2d4c 673c c31b b13a
000001b0: cb69 67bd 30c3 0a3d 4773 93bc 1aa8 1dbe
000001c0: b8b2 6dbd 706f 8c3c 3641 13bb 6944 683c
000001d0: aed3 40be 7b49 e3bc 4469 85bc cba8 6ebd
000001e0: 14ea 2dbe cdb3 e8bd d4ef efbd f41a c93c
000001f0: 05f8 91bd 8b47 28bd 9f3f e6bc 3167 cdbc
-0.080814585 -0.047459323 -0.10262223 0.06432196 -0.081081375 -0.058864746 -0.026675137 -0.023416493
-0.08592514 -0.044314064 -0.04363929 -0.015815776 -0.099126995 0.033116844 0.014299908 -0.038170777
-0.085164905 0.06337946 -0.038891982 -0.10760086 0.10536721 0.059497558 -0.15320921 -0.22448854
-0.120937414 -0.040328197 0.0010756347 0.0029185785 0.07814658 -0.12672824 -0.09317456 -0.066600375
-0.0011115479 -0.07118841 -0.10112897 -0.08121185 -0.09728373 -0.12366744 -0.18467526 -0.06396651
-0.097289704 -0.08190442 -0.007676004 0.07899539 -0.032112684 -0.040601697 -0.065168425 -0.04132047
-0.09494823 0.074050836 -0.03860192 -0.06307992 0.029074961 0.0033819107 -0.022917952 0.07282469
-0.0056676697 -0.06800031 -0.008451154 -0.048925824 -0.0347014 -0.10349258 -0.08698283 -0.081642404
-0.046579264 -0.025311925 -0.06485773 -0.06574479 -0.004807224 0.0035742496 -0.016645772 -0.084486574
0.08024592 0.056276362 -0.07417725 -0.06685247 -0.12152007 -0.012597665 -0.05990297 -0.07448013
0.045936678 -0.0589585 -0.023576254 0.04367463 -0.048296306 0.014398012 -0.12755364 -0.029004423
0.009378742 -0.012796521 -0.094545364 0.025461093 -0.041547924 -0.060117975 -0.05592271 -0.039026126
-0.11677602 0.024974195 -0.048074223 -0.029653938 -0.07514118 -0.040827733 -0.10560677 -0.0007028604
-0.08379827 -0.0040339525 0.014117283 0.0013512302 -0.056497376 0.03387755 -0.017999304 -0.15396157
-0.058031768 0.017142981 -0.0022469289 0.0141764665 -0.1883075 -0.027745 -0.016285546 -0.058266442
-0.16983825 -0.11362419 -0.117156655 0.024548985 -0.07127384 -0.041083854 -0.028106509 -0.02507362

network_body.linear_encoder.seq_layers.0.weight f4 [128, 53]
00000000: 1f1a 013e c7dd 24be 266b 2f3e af17 dbbd
00000010: 99cc 89bd bedf 8cbd d1e9 9f3e b34e 7b3d
00000020: b8d6 9c3d b821 deba d0d6 423e 9af7 70be
00000030: e560 28be a7a5 a9be ecd0 293e a31d 24bd
00000040: b3af bd3d eed1 123e 06b2 ad3b 2724 8dbe
00000050: 99ae 00be 8c5e e9be 4a36 ad3d 4e90 8a3e
00000060: f245 47bd 142a 773e 6582 f2bd dbfb d33d
00000070: 1be0 82bc e98f c8be 2d79 013e b698 e73d
00000080: a9cb 483e 3016 2fbd 13c2 a3be 6533 593d
00000090: 235e 563e 102d f8bd 35a5 c83d 5742 4b3e
000000a0: 688a e73e 9002 55bd ca4a 8f3d 9b10 373e
000000b0: 7353 a7bb 7234 26be 2033 b53d e015 923e
000000c0: 05a7 e73c 6c90 1fbe 4548 943d 7343 503d
000000d0: 6524 123d 2578 233d bf85 9f3d 4584 babe
000000e0: 48dd f4bb 348d 7fbd a9b2 0fbc 8b5c 94bc
000000f0: 0f2a 51be 771a 72bd faf4 573c a228 473d
00000100: 0b18 d4bb 61d0 4ebe 968e 7d3c 071c c2bc
00000110: 011d 94be 9ac0 efbb 6c4a 01be 1149 2ebd
00000120: 9ffa 28be edbc 753d 7fe4 6dbb 36cf 8c3e
00000130: 9afb 693e f91c 9bbd a361 93bd a41d 9abe
00000140: 4a72 a1be 1287 3c3c 4946 67be 1b3c 5f3e
00000150: bd5a 7d3d 0601 543c c841 18be 4203 2abb
00000160: fce2 e6bc 785c 0f3e 9c04 b63d 2238 48be
00000170: cd06 793e ba37 87be b33f 52be 393c 3a3e
00000180: 4deb ea3d e25a 33bd 2395 22be 10ce a83d
00000190: 653e 5c3c 9317 cb3e c70b b6bd 76ee 473c
000001a0: fcfe 1dbe 5455 f63d 2fc7 8fbc 00da eabe
000001b0: 4914 07be 8e6b 1dbe 6666 bdbd e070 d8bd
000001c0: 281a 91be 8d8f 3abe d2c9 93ba 2595 ffbd
000001d0: 4039 2a3e e3b0 13be e738 363e 8354 1a3e
000001e0: 4270 253e 3b4a 0abe 4361 6f3e 5887 b6bd
000001f0: 6c3f 46be 93a5 75be 4008 7e3d 1eca 29bd
00000200: 3436 a4be 180a debd ab7d 20be 1cf9 acbb
00000210: d3b0 50bd ee15 63be 674b bb3c a4bb a4bd
00000220: b4ef 143c 7186 3dbe a8f0 9dbd 1a6b ab3d
00000230: 810a fcbd da6f 4ebe 9b7e 2fbd aad7 003e
00000240: 3c58 d0be 8eaa 883b aa24 56bd 345a e2bd
00000250: 2b5c 70be 671d 71be efac a73c 0560 903c
00000260: 81d1 1bbe 11f5 c53e 2ff3 a9bd b47f 3bbb
00000270: cd1e 7cbe 7cee b7bc 34df 9a3d aab3 34bd
00000280: 6fd6 fb3d af5f d23d 74ec 8f3e d249 2ebe
00000290: ffc3 febd 688b 9d3d 03ef 553e 4a09 383e
000002a0: 3f38 00be 3d56 813d a3d0 153e ae19 e4bd
000002b0: 3f02 c63d dc0f a139 737c 253e 65c6 19be
000002c0: 14ad 863e 554a a0bd 069f 00be b128 773e
000002d0: 3204 0b3e f1b9 ba3d d46b 24bd b149 44be
000002e0: a0d9 683d 1e7f 37be 34c6 63be 88e5 13be
000002f0: 8bc6 edbd f4d9 0f3e 1dca 5c3e 3128 673d
00000300: 0e90 c8bc d64e 5d3d 99ba e3bd c148 963d
00000310: 79b1 313e 66fb 0c3d fe1f 933d 2726 3cbe
00000320: f8d0 023e 7385 743d a964 fb3d d9c8 5cbe
00000330: e8cf 013d e12d 3b3b f417 1b3d e409 8d3e
00000340: 7b29 5c3d 3a6d ecbd 2a8a ee3d 0231 483e
00000350: f1f3 91bd b7b6 a4bc e448 42bd 025f a73c
00000360: a76c 01be e805 1abd 98d6 f13d 16ee fbbc
00000370: de2e 4f3e 27b1 d8bd 1fa4 edbc 640c 10be
00000380: 0e89 b0bd acab 803d 3e6f d8bd 17db 5f3c
00000390: cd68 043e c1f4 843d e5fe 6ebe ccef 513d
000003a0: 94d8 10be 1785 8abd c698 77bd c083 d4be
000003b0: 339c 8a3d d3f0 cd38 ab9c fcbd 80d4 abbd
000003c0: d577 69be f6c7 69bc 917e 023e 03ab c2be
000003d0: edd6 303c d8ae e1bd c789 94bd 203d 2abe
000003e0: 9e75 abbc 171f 2fbe e668 e739 d8a5 68be
000003f0: 1f10 8d3d 7322 5bbe 6bab 0f3c 2a50 433d
0.1260762 -0.16100226 0.17130718 -0.10697877 -0.06728477 -0.06878613 0.31233075 0.06135435
0.07658142 -0.0016947305 0.19027257 -0.23531953 -0.16443212 -0.33134195 0.16583604 -0.040067326
0.092620276 0.14337894 0.005300763 -0.27566645 -0.12566604 -0.45579946 0.084576204 0.2706322
-0.04865069 0.24137145 -0.11841277 0.10350772 -0.015976002 -0.39172295 0.12643881 0.11308424
0.1960894 -0.04274577 -0.31984004 0.05302753 0.20934348 -0.1211797 0.09797136 0.19849525
0.45222783 -0.052004397 0.06996687 0.17877428 -0.0051063835 -0.16230944 0.08847642 0.28532314
0.028277883 -0.15582436 0.07240347 0.050845575 0.03567924 0.0399095 0.07789182 -0.3642904
-0.007472668 -0.06239052 -0.008770623 -0.018110534 -0.204262 -0.05910727 0.013180966 0.048622735
-0.0064725927 -0.20196678 0.01547589 -0.023695005 -0.28928378 -0.007316661 -0.12626046 -0.04255015
-0.16501854 0.059994627 -0.0036299524 0.2750184 0.22849885 -0.075738855 -0.07196357 -0.3010074
-0.31532508 0.011506813 -0.22585405 0.21800272 0.061854113 0.012939697 -0.14868844 -0.0025941883
-0.028184406 0.14000118 0.08887598 -0.19552663 0.24319 -0.26409703 -0.20532112 0.18187036
0.11470661 -0.043787844 -0.15877204 0.08242428 0.01344261 0.39666423 -0.08888965 0.01220285
-0.154293 0.12027994 -0.017551033 -0.45869446 -0.13191332 -0.1537306 -0.092480466 -0.10568404
-0.28340268 -0.18218823 -0.0011275357 -0.12479619 0.16623402 -0.14422946 0.17795144 0.15071301
0.16156104 -0.13504879 0.23376946 -0.089125335 -0.19360131 -0.23988943 0.062019587 -0.04145252
-0.32072604 -0.10841769 -0.15672939 -0.0052787196 -0.050949883 -0.22176334 0.022863103 -0.08043602
0.009090353 -0.18508317 -0.07711917 0.083700374 -0.12306691 -0.20159855 -0.04284535 0.1258227
-0.40692317 0.0041707223 -0.05228106 -0.11052361 -0.2347266 -0.23546372 0.020468203 0.01762391
-0.15216638 0.38663533 -0.08298337 -0.0028610053 -0.24621125 -0.022452585 0.07562104 -0.044116654
0.12296759 0.102721564 0.28110087 -0.17020348 -0.12439727 0.07692605 0.20891957 0.17972293
-0.12521456 0.06315277 0.1463037 -0.111377105 0.09668397 0.0003072013 0.16160755 -0.15017088
0.26303923 -0.07826678 -0.12560663 0.24136616 0.13575819 0.09117497 -0.040141895 -0.19168736
0.05684817 -0.17919585 -0.22243577 -0.14443028 -0.11610135 0.14047986 0.21561475 0.056434814
-0.024482753 0.054030262 -0.11119575 0.073380955 0.17352857 0.03441944 0.071838364 -0.18373929
0.12775028 0.05969758 0.12275059 -0.21560992 0.031692415 0.0028561282 0.03786464 0.27546608
0.053750496 -0.11544271 0.116474465 0.19549945 -0.07126606 -0.020106656 -0.047432795 0.020431045
-0.12639104 -0.03760329 0.11808509 -0.030753177 0.20232722 -0.10580664 -0.029008923 -0.14067227
-0.08619891 0.06282744 -0.10568093 0.013663075 0.12930603 0.064919956 -0.23339422 0.05125408
-0.14145118 -0.06763666 -0.06044843 -0.41506767 0.06768074 9.820019e-05 -0.123345695 -0.083901405
-0.22799619 -0.014268866 0.12743594 -0.38021097 0.01079343 -0.11019677 -0.072528414 -0.1662488
-0.020930108 -0.17101704 0.0004413791 -0.22719514 0.068878405 -0.2139986 0.008768897 0.047683872

network_body.linear_encoder.seq_layers.2.bias f4 [128]
00000000: 3d49 cfba a472 bebc 2868 f4bc ff94 efbb
00000010: 293d da3c f46d 3abd 7240 21bd df9f 633c
00000020: 2b5b 913d 8dc8 debc 0a27 77bb f9c2 b9bc
00000030: f81f e53b 5109 63bd 412b e9bc a331 bd3a
00000040: 595a 843c d768 c43c af5d 8fbd fccc a3bb
00000050: 1e0c 803b 153b fbbb 28ce ae3c e429 b4bb
00000060: 4e8d 1bbd bb79 0fbd 1c44 73bd 9d67 1d3d
00000070: 3eda ee3c 9977 c9bc 1384 403d 4aa2 b2bd
00000080: ff2c 37bd 6771 44bc 3c50 ac3c ff0f 24bd
00000090: e00b 9abc 8893 4ebd 6ad4 0bbc b952 67bc
000000a0: 3abe 52bc 63d1 463c c1bf 0b3d 1d72 013d
000000b0: 3580 d53a a6b1 093b 6a0e 4abc 4167 6ebc
000000c0: 0f43 dabc 4baa 9d3b df84 233c 90e0 efba
000000d0: 9486 c1bc bf09 6f3c 39a5 0fbc c4b9 93bc
000000e0: a6b8 203d 9eea a33c 7e6f d93c d7ed 913d
000000f0: f5fb 8dbd 7297 523d f794 3e3d f489 e2bc
00000100: e7f9 0dbd 12fc 603d a446 353d 84c8 b73c
00000110: 47ab d6bb 3876 38bd b9e4 893a 527f bc3c
00000120: 6095 42bc e2c0 853a c26e 813c 0780 33bc
00000130: 7f0a 933c 3ea1 68bd 101a a13c aa42 fb3c
00000140: 9b6b 433c 5214 443d 79f9 343d 454a 09be
00000150: 3153 40bc 4df5 2cbc 2c84 47ba 376f babc
00000160: 40f8 ecbc 66d4 1fbd 3b7f c8bc 4dc9 103a
00000170: e106 c3bb 8239 9fbc 7f95 ce3c f859 6c3b
00000180: 865f e5bc 0f20 303d ac8f 0dbc 4ba7 2d3d
00000190: ccdf 073c 1df4 a4bc f280 503c 9a5f 303d
000001a0: 6357 c0bd b1d6 99ba fe55 afbd 7a4f c4bc
000001b0: 4513 45bd f0ee 1bbc b6d3 1fbc 374f e7bb
000001c0: 2e72 663d 962b bbbd 9aac 0f3d 453c 67bd
000001d0: cd2b 69bd f1be c8bc 2d71 913b 2c52 38bc
000001e0: 5535 3d3d 5618 9ebc d63a d3bc b7a6 9fbc
000001f0: 2fed b8bb f923 623d 60b1 683c e7e1 c43c
-0.0015814673 -0.023248024 -0.029834822 -0.007311463 0.026640492 -0.045515016 -0.0393681 0.013893097
0.07097467 -0.02719524 -0.0037712478 -0.022675978 0.0069923364 -0.055428807 -0.028463008 0.0014434349
0.016156362 0.023975773 -0.070002906 -0.0049988013 0.0039076945 -0.0076669552 0.021338537 -0.005498158
-0.037976556 -0.0350282 -0.059391126 0.03842889 0.0291568 -0.024593161 0.047000956 -0.087223604
-0.044720646 -0.011989928 0.021034352 -0.040054318 -0.01880449 -0.050433666 -0.00853453 -0.014118844
-0.012862736 0.012134883 0.034118418 0.031602968 0.0016288819 0.0021010428 -0.012332538 -0.014550985
-0.026643304 0.0048115603 0.009980409 -0.0018301178 -0.023623742 0.014589726 -0.0087674195 -0.018032916
0.039238594 0.020009335 0.026542421 0.071254425 -0.069328226 0.05141396 0.046528783 -0.027653672
-0.034662154 0.054927893 0.04425682 0.02243448 -0.0065511796 -0.045034617 0.0010520435 0.02300993
-0.011876434 0.0010204578 0.015799884 -0.010955817 0.01794934 -0.056794398 0.019665748 0.030671436
0.011927511 0.04787094 0.04418323 -0.13407238 -0.011738584 -0.010556531 -0.00076109427 -0.02275811
-0.028926969 -0.03902092 -0.02447473 0.000552316 -0.0059517478 -0.019436602 0.02521777 0.0036064368
-0.02799965 0.042999323 -0.008640211 0.04239587 0.008293103 -0.020135934 0.012726055 0.043059923
-0.09391668 -0.0011736957 -0.085613236 -0.023963679 -0.04811408 -0.009517416 -0.009755066 -0.0070590037
0.056261234 -0.09139173 0.035076715 -0.056453962 -0.056926537 -0.02450511 0.0044385404 -0.01125006
0.04619344 -0.019298714 -0.025784891 -0.019488676 -0.005643509 0.055210087 0.014202446 0.0240335

network_body.linear_encoder.seq_layers.2.weight f4 [128, 128]
00000000: c5ce fabd fb3e a2ba 35c8 10be 0506 80bd
00000010: 012a 48be b7d3 703d 3d22 ae3c e5bb 1bbc
00000020: b62b d2bd b0ce a1bd b45c a53d 5225 033e
00000030: 3e00 9ebd 8543 533e 0da1 03bd 297d c43d
00000040: ed6b 22bd d2a4 1abd d996 bbbc 95d0 68bd
00000050: 0d0f d0bd b22d 15bd 1e48 08bd b3dd 52be
00000060: f0b4 3b3e f573 c13b 6c6a 803c b98e ecbd
00000070: 30db 0bbe 69b8 fbbd facf 373e 2ae3 edbc
00000080: 7301 14be a09c c7bd 6534 3fbc 2b26 f53c
00000090: c0e0 27be e823 02be bcae f3bc 6e39 493e
000000a0: abdc 3fbd d9af 0d3d fae0 9abd 1ca8 1fbe
000000b0: 78c6 58bc 3a5f f13c a142 cd3d d0cc 0abd
000000c0: 60cf d53d ded0 0dbe 4116 293e fa28 a7bc
000000d0: 0303 8ebc 1f2c 23be 24d5 8abd 75e6 8abd
000000e0: c62b 703c 3aa9 433e 90d2 2bbe 62cc b53d
000000f0: 293b d53d 4864 f1bc ebf7 083e 2dfc 5fbd
00000100: 30a3 5dbe c6ae cd3c da06 a5bd 4407 b33b
00000110: a27d aabd 37a3 8c3d 8501 12bd 7fe1 06bc
00000120: eb63 623d b213 e3bd 653b a7bd c4c4 a03d
00000130: ced0 153e 27ee c2be 1696 1e3d 03c4 343e
00000140: 7f0a 48be 323b 97bd 7aa3 37bd 8c4f b4be
00000150: 90b0 8a3d abe9 7ebd dbca 0cbe d3cf 0d3d
00000160: e423 05be 9530 4b3d c449 4dbd 7c66 393e
00000170: e4b6 3abe 2275 993c a4ad 623d 91f9 813e
00000180: f875 86bc 6e8d aebd a74c 92bd a341 d5bd
00000190: 581f 9cbd fca5 01bd 49c0 673d e2bd 20be
000001a0: 61a7 a2bc 821d debd 8ca3 1ebd 78ab 8bbe
000001b0: a0ed 503e ea28 113e 2ac7 babd 5848 27be
000001c0: 2838 9bbd af25 a03d 38f8 8cbe 941e a63c
000001d0: 3e20 d9bd 7028 62bc 099a 553c 5b5e 4d3d
000001e0: c421 423e 39dc 48bd f8a8 4c3d 5ae6 f0bd
000001f0: a812 a3bd cd0f 01be d33c e63c 41db 1b3e
00000200: 9470 e8bd e277 213e b1ea efbc 5f7c 26bd
00000210: 167c 46bd 0a37 343d b1fe a73c b176 8dbd
00000220: 0b8b f4bd 180c d53d cae8 c53d 3026 e7bd
00000230: b17d 3cbd be55 39bd 3ba7 203e 55ae 113e
00000240: 05d6 d3bb cc07 1fbe b343 573d 04ac 3ebe
00000250: f3d1 453e a7d7 d6bb 4b55 25bd 3a87 d83d
00000260: 65cd 8ebc aa32 0cbe bf12 d9bd 022e 993d
00000270: 1718 92bc 7b9d 4ebd 9a65 143c 3afc 02be
00000280: 4dda bc3d 6051 8ebd 2c6f 5c3d 1d2f a6bb
00000290: 67ce 8e3d 1668 bfbb 2590 433d 48fb afbd
000002a0: efcd 49be ab6c 933a 27bc 78bd e37e d8bc
000002b0: e297 bdbc 04e7 443d 116b ffbd 1af1 28be
000002c0: f372 a73c 70d9 05bd 7c3c ee3c d9a3 16be
000002d0: 8d82 15bd d83f 79bd 1f55 493c f7c9 803d
000002e0: 77b6 5f3d a4e2 b6bc 4bbd 8ebd bf77 14be
000002f0: f90b c13c d947 5ebd 3036 8ebd 9a64 b6bd
00000300: d878 1dbd 47fb 043b 2ee8 273b 4c7c 323d
00000310: b572 013e 0564 8c3d 19e7 ecbd 5267 7bbd
00000320: 9e5f 2a3e 2d26 3fbd f506 8a3d 1a15 42be
00000330: 0f78 113d 84f6 9f3a b78b 563e c1ca 8fbd
00000340: 6544 103e 02f2 4bbc a9d5 c1bc 0f8f b3bc
00000350: 92a9 b1bc c0fd 243c 36d9 073d 8ade 1cbe
00000360: 6509 a83d 5e56 e2bd 67da 54be ac32 04be
00000370: 6fac 19bd 395c b6bb 4e7f fd3b cecb 5cbd
00000380: f523 11be 49d2 f53b 8e8a c9bc 5cf9 313e
00000390: 8463 11ba b67a 213b 8526 ec3d 8af6 32be
000003a0: 49a7 cebc 5b23 263d 7552 f53d 5d88 14be
000003b0: c585 83bd acfc 983d f972 cd3b 5e29 63bd
000003c0: 858a 1cbe 9a22 6dbd e23e 8e3d 2113 a2bc
000003d0: 8af8 b83d bc19 903c 7f3d 0dbe 3c64 03bc
000003e0: 2fbe ae3b af69 0e3e 5816 86bc 3981 68bc
000003f0: 9c2c 7ebc c9c4 10bd 00b1 4d3b 746f 00be
-0.122464694 -0.0012378389 -0.14138873 -0.06251148 -0.19547273 0.058795657 0.02125656 -0.009505247
-0.102622434 -0.07900751 0.08074322 0.12807205 -0.0771489 0.20631225 -0.032136012 0.09594185
-0.039653707 -0.03775484 -0.022899078 -0.056839544 -0.10159121 -0.03642053 -0.0332719 -0.20592384
0.18330741 0.0059037157 0.015675746 -0.1155066 -0.13657832 -0.12291033 0.1795043 -0.029038984
-0.14453678 -0.09746671 -0.011670207 0.029925426 -0.16394329 -0.1270901 -0.029746406 0.19650814
-0.046841305 0.03459153 -0.07562442 -0.15591472 -0.013230912 0.029464353 0.10022474 -0.03388673
0.10439944 -0.13849208 0.16512395 -0.020405281 -0.01733542 -0.159348 -0.067789346 -0.067822374
0.014658874 0.19107524 -0.16779542 0.088768736 0.104116745 -0.029466763 0.13375823 -0.054683853
-0.21644282 0.025107753 -0.080579475 0.0054635126 -0.08324744 0.06867068 -0.03564598 -0.008232473
0.05527107 -0.11087741 -0.081656255 0.0785003 0.14630434 -0.3807232 0.03871735 0.17652898
-0.19535254 -0.073843375 -0.044833638 -0.3521694 0.06771958 -0.062234562 -0.13749258 0.034622025
-0.13001972 0.04960688 -0.050119177 0.18105501 -0.1823383 0.018732611 0.055341378 0.25385717
-0.016413674 -0.08523069 -0.071435265 -0.1041291 -0.07623166 -0.031652436 0.05657986 -0.15697435
-0.019855203 -0.10845472 -0.03873019 -0.27279258 0.20403147 0.14175764 -0.09120019 -0.1633619
-0.0757907 0.078196876 -0.27533126 0.020278253 -0.10601853 -0.013803586 0.013037213 0.050138813
0.18958193 -0.049038146 0.04996583 -0.11762686 -0.07962543 -0.12603684 0.028105175 0.15220357
-0.113495976 0.15768388 -0.029286714 -0.040645953 -0.04845818 0.0439978 0.020507189 -0.06907404
-0.11940583 0.10402697 0.096635416 -0.112865806 -0.046018306 -0.045247786 0.15688793 0.14226659
-0.006464722 -0.15530318 0.052554797 -0.18620306 0.1931837 -0.0065564695 -0.040364545 0.105726674
-0.017431924 -0.13691202 -0.10599279 0.074794784 -0.017833753 -0.050443154 0.009057427 -0.1279153
0.09221325 -0.06949115 0.05381696 -0.0050715343 0.06972962 -0.0058412654 0.04774489 -0.0859285
-0.19707464 0.0011247596 -0.06072631 -0.026427692 -0.023143712 0.048071876 -0.12471593 -0.16498223
0.020440554 -0.032678068 0.029081576 -0.1471094 -0.036501456 -0.0608519 0.012288361 0.06288522
0.05461737 -0.022324868 -0.069696985 -0.14498805 0.02356528 -0.054267738 -0.06943929 -0.08905907
-0.038445324 0.0020291375 0.0025620568 0.04357557 0.12641414 0.06855015 -0.11567516 -0.06137783
0.16638038 -0.046667267 0.06739608 -0.18953362 0.035514887 0.0012204205 0.20951734 -0.07021094
0.1408859 -0.012447836 -0.023661451 -0.021918802 -0.021687303 0.010070264 0.033166133 -0.15319267
0.08204917 -0.110516295 -0.20786439 -0.12909955 -0.03751796 -0.005565193 0.007736123 -0.0539053
-0.14173873 0.0075018746 -0.0246022 0.1738028 -0.000554614 0.0024639792 0.115307845 -0.1747686
-0.025226252 0.04056106 0.11978618 -0.14505143 -0.06421999 0.07470068 0.0062698093 -0.055459373
-0.15287216 -0.057894327 0.06945588 -0.019784512 0.0903178 0.017590396 -0.1379299 -0.008019503
0.0053327302 0.13907503 -0.016368076 -0.014190965 -0.015513565 -0.03534392 0.0031386018 -0.12542516
