Assets/RollerBallLife.onnx (onnx, 86721 bytes, 7 tensors)

39 f4 [1, 2]
-0.8328403 -0.8450723
00000000: 0635 55bf a956 58bf

distribution.mu.bias f4 [2]
-0.1310718 0.05839811
00000000: b037 06be db32 6f3d

distribution.mu.weight f4 [2, 128]
0.15623818 -0.03048918 0.12159806 0.06878972 0.072673604 0.08501206 0.11757797 0.11046934
0.049889795 0.12766355 0.091299415 0.05233675 0.113111936 -0.078984536 0.065945275 -0.022818945
0.093459494 0.090057805 0.086980745 0.118183754 -0.13251105 0.09902036 0.093925446 0.08715463
-0.031514272 -0.041433662 0.0858167 0.13759236 0.096847564 0.07204135 -0.022629313 -0.034905363
0.12560663 -0.20246907 -0.13362946 0.13433978 -0.018802747 -0.051055845 0.1944086 -0.037230738
-0.014686924 0.10758241 0.08233528 -0.103809305 0.07553697 0.080081046 0.13016294 0.08518994
0.03847252 -0.0032431844 -0.13379657 0.085687965 0.15295528 0.008214234 0.120482884 0.01336361
0.14169599 0.08710651 0.064254075 -0.0533337 0.02109786 0.047863442 -0.0110193 0.06893622
0.112433314 0.00012017023 -0.042015057 0.068032146 0.05722652 0.08629177 0.110790744 -0.022560982
0.13098232 0.11845308 0.14016402 0.050023068 -0.038226437 0.06667838 -0.20248096 -0.07505686
-0.022665879 -0.021562574 -0.011823006 0.14655063 0.1216076 0.022725077 0.03800128 0.04817606
-0.085554846 -0.08723109 0.15569961 0.00651863 -0.14132805 -0.0028862078 -0.02545021 -0.0044857482
0.057674594 0.0996349 0.124631666 -0.026504315 0.04762885 -0.12941247 0.07276869 0.06425936
-0.09477274 0.05983764 -0.06561803 0.12399441 -0.06492202 0.0221856 0.122556195 0.09554264
0.11645044 -0.023219712 0.105066024 0.12092252 0.07558211 0.11360422 0.09236535 0.12153442
-0.05393572 0.07102694 0.04439278 0.08949648 0.09876596 0.03736962 0.092606276 0.0779022
-0.07179845 -0.09106579 -0.085181765 -0.15307504 0.09505433 0.042463828 0.055560745 -0.022163874
-0.15333146 -6.343563e-06 -0.096919626 -0.1045612 -0.113813356 0.13329804 0.059872396 -0.07073292
0.017520232 -0.05877277 -0.06945237 -0.046110224 0.018139223 0.09490634 0.020563403 -0.023068083
0.023061547 0.06874656 -0.089826755 -0.14054812 0.01274275 -0.07973351 -0.070342146 -0.13652538
-0.121447384 -0.093108006 0.009202427 0.06934226 -0.11601603 -0.042517044 -0.17570384 -0.05651415
0.057201505 -0.11585189 0.013505853 0.091754 -0.124863155 -0.12658343 0.07672227 0.06871394
-0.006472543 -0.13835245 0.0031702323 -0.17970365 0.07232544 -0.06545767 0.0065832282 -0.12926196
0.10800307 -0.18129802 -0.06947073 -0.08657284 0.09537765 -0.06782767 -0.05121641 0.0659522
0.088126935 -0.044945322 0.06733485 0.03414772 -0.0017664972 -0.054552272 -0.011956895 0.050376974
-0.014921337 -0.018082181 0.030275594 -0.08854103 -0.0684752 -0.113019995 -0.013604152 -0.08156793
-0.06463574 0.033626825 -0.0135643305 0.099573806 0.059082586 0.10649557 -0.072015114 -0.038843915
-0.10419466 0.09071334 -0.05434694 0.02521234 -0.12828447 -0.08816452 -0.1559268 0.13234545
-0.049144175 -0.13182385 -0.09944456 -0.05922626 0.09255981 -0.19139011 0.025736462 0.04070473
-0.081524774 -0.18386766 -0.1467159 -0.0076287235 -0.07775904 0.04637319 0.077581264 -0.12315621
-0.107472904 -0.048364084 -0.07066449 0.13652982 0.1119128 -0.073880315 -0.04010848 -0.115629055
-0.038503677 -0.004957649 -0.12024434 0.06853624 -0.090149 0.14003311 0.07279148 -0.044289846
00000000: e7fc 1f3e 72c4 f9bc 6708 f93d a0e1 8c3d
00000010: e6d5 943d ce1a ae3d b8cc f03d c03d e23d
00000020: 3e59 4c3d 3cba 023e 30fb ba3d 0f5f 563d
00000030: 3ba7 e73d a5c2 a1bd 510e 873d ccee babc
00000040: b167 bf3d 3a70 b83d f622 b23d 530a f23d
00000050: fab0 07be 30cb ca3d fc5b c03d 207e b23d
00000060: 1c15 01bd 58b6 29bd aac0 af3d 03e5 0c3e
00000070: 0458 c63d 6a8a 933d 1c61 b9bc edf8 0ebd
00000080: 069f 003e 0d54 4fbe 29d6 08be 5e90 093e
00000090: 3808 9abc ef1f 51bd 0c13 473e 427f 18bd
000000a0: 6da1 70bc 2b54 dc3d 669f a83d f999 d4bd
000000b0: 20b3 9a3d 8801 a43d 6f49 053e 1078 ae3d
000000c0: 5c95 1d3d 9b8b 54bb f801 09be 2c7d af3d
000000d0: 4fa0 1c3e ff94 063c bbbf f63d 0bf3 5a3c
000000e0: c118 113e e664 b23d a497 833d 7074 5abd
000000f0: 6bd5 ac3c 750c 443d 4b8a 34bc 6f2e 8d3d
00000100: 7043 e63d e703 fc38 fb17 2cbd 7054 8b3d
00000110: 5b66 6a3d bdb9 b03d 42e6 e23d cfd1 b8bc
00000120: 3b20 063e 8797 f23d 2887 0f3e fde4 4c3d
00000130: 5393 1cbd ad8e 883d 2b57 4fbe 69b7 99bd
00000140: cbad b9bc ffa3 b0bc 48b5 41bc 5e11 163e
00000150: 680d f93d f129 ba3c 3ba7 1b3d 4354 453d
00000160: 6137 afbd 37a6 b2bd b86f 1f3e 3b9a d53b
00000170: 4db8 10be 8826 3dbb f57c d0bc 2ffd 92bb
00000180: 323c 6c3d 620d cc3d e33e ff3d 941f d9bc
00000190: 7816 433d b484 04be c007 953d 699a 833d
000001a0: 3618 c2bd 5018 753d bf62 86bd c8f0 fd3d
000001b0: d6f5 84bd 93be b53c befe fa3d dcab c33d
000001c0: 917d ee3d 4437 bebc db2c d73d 3aa6 f73d
000001d0: cbca 9a3d 54a9 e83d 0b2a bd3d 0ae7 f83d
000001e0: b4eb 5cbd 9376 913d 34d5 353d ee49 b73d
000001f0: cf45 ca3d e310 193d 5ca8 bd3d 308b 9f3d
00000200: 110b 93bd b380 babd c773 aebd b4bf 1cbe
00000210: d8ab c23d 8dee 2d3d aa93 633d 0391 b5bc
00000220: ec02 1dbe cbda d4b6 cc7d c6bd 2f24 d6bd
00000230: fa16 e9bd 487f 083e c23c 753d 6cdc 90bd
00000240: 9786 8f3c b7bb 70bd 0b3d 8ebd 13de 3cbd
00000250: b598 943c 415e c23d 9574 a83c 47f9 bcbc
00000260: 92eb bc3c ffca 8c3d 17f7 b7bd d9eb 0fbe
00000270: f8c6 503c 534b a3bd 8b0f 90bd 4fcd 0bbe
00000280: 68b9 f8bd 69af bebd c7c5 163c 5103 8e3d
00000290: d099 edbd 5a26 2ebd b5eb 33be 627b 67bd
000002a0: 204c 6a3d c143 edbd a747 5d3c 85e9 bb3d
000002b0: 41b8 ffbd 169f 01be 9120 9d3d e5b9 8c3d
000002c0: a017 d4bb 44ac 0dbe acc3 4f3b 3c04 38be
000002d0: 5c1f 943d ac0e 86bd 1fb8 d73b 3f5d 04be
000002e0: b730 dd3d 30a6 39be ac46 8ebd 1a4d b1bd
000002f0: 5b55 c33d 3ce9 8abd 4cc8 51bd f211 873d
00000300: e57b b43d 9618 38bd dbe6 893d 7bde 0b3d
00000310: cf89 e7ba 3472 5fbd dae6 43bc 1658 4e3d
00000320: a078 74bc 1521 94bc 8604 f83c 0055 b5bd
00000330: ba3c 8cbd 0777 e7bd f3e3 5ebc 160d a7bd
00000340: be5f 84bd 48bc 093d ed3c 5ebc 5aed cb3d
00000350: 9500 723d 591a da3d a97c 93bd cc1a 1fbd
00000360: 0364 d5bd eac7 b93d e69a 5ebd 1c8a ce3c
00000370: 015d 03be 9a8f b4bd 46ab 1fbe 9185 073e
00000380: 674b 49bd d5fc 06be 97a9 cbbd 3c97 72bd
00000390: ff8f bd3d c5fb 43be 46d5 d23c 01ba 263d
000003a0: 76f6 a6bd ce47 3cbe b13c 16be 5ffa f9bb
000003b0: 2240 9fbd d0f1 3d3d ede2 9e3d 5339 fcbd
000003c0: c11a dcbd 6b19 46bd 8bb8 90bd 79ce 0b3e
000003d0: 8a32 e53d 904e 97bd ca48 24bd edce ecbd
000003e0: 08b6 1dbd c673 a2bb aa42 f6bd ba5c 8c3d
000003f0: 0aa0 b8bd d764 0f3e b313 953d 4569 35bd

network_body.linear_encoder.seq_layers.0.bias f4 [128]
0.059375208 -0.008625384 -0.29507267 -0.03853196 -0.08081266 -0.10636582 0.03658525 -0.03345065
-0.05437036 -0.022989158 -0.054527026 0.10504842 0.027586872 0.16734162 0.017393738 0.052034765
0.022467913 -0.048645597 -0.005717187 -0.15193959 -0.06723082 -0.04302601 0.0043652393 0.0055382713
-0.14738847 0.009213405 -0.03412669 0.02715323 0.19890977 -0.09621517 0.07861016 -0.12824751
-0.016726952 0.05190121 0.0924808 -0.020349612 0.07706496 -0.10594705 0.08789363 -0.095476106
-0.020072488 0.010154184 -0.06286834 0.0001691725 0.0677903 0.08577021 -0.14897154 0.016447367
0.017560419 -0.15740101 -0.109166846 -0.06887241 -0.07610913 -0.1642536 0.044426206 0.042034257
-0.02799462 0.027468253 -0.17929508 0.007866179 -0.077802464 -0.014278278 -0.036622226 0.0680589
0.025562186 0.044315778 -0.040946376 -0.17010176 0.047251876 -0.009161867 -0.022131782 -0.011494878
0.064308956 0.0154431155 0.037409734 0.06505091 -0.10550935 -0.03474945 0.054288637 -0.11934413
-0.04385328 0.0025466941 0.00806532 -0.08792207 -0.02563178 -0.04498652 0.04579202 -0.008930984
-0.009384133 -0.02171648 -0.01330344 0.09083369 -0.03951431 0.101689294 0.060705595 0.05908086
0.015952853 0.07231891 -0.06251177 -0.03530857 -0.0018382106 -0.04928516 0.038355224 0.05082161
-0.15356149 -0.02529496 0.04714067 -0.12530977 -0.18416297 0.06057902 -0.06694703 -0.07182338
0.09486274 0.03858036 -0.12161034 -0.18249555 -0.07219589 -0.09563987 0.06504218 -0.034195345
-0.02937918 -0.10574663 -0.07418722 -0.12035472 -0.012797658 -0.103310816 -0.0022996035 -0.07074977
00000000: 6b33 733d 7c51 0dbc c413 97be b0d3 1dbd
00000010: 1c81 a5bd 53d6 d9bd 6ada 153d 8c03 09bd
00000020: 74b3 5ebd c253 bcbc bb57 5fbd a023 d73d
00000030: ddfd e13c 9a5b 2b3e 507d 8e3c 6822 553d
00000040: a10e b83c 9b40 47bd 3e57 bbbb 0d96 1bbe
00000050: 50b0 89bd 0b3c 30bd 480a 8f3b 637a b53b
00000060: 01ed 16be d2f3 163c 6ec8 0bbd 7370 de3c
00000070: 01af 4b3e 760c c5bd 5dfe a03d 5153 03be
00000080: f606 89bc 5d96 543d 9366 bd3d 3bb4 a6bc
00000090: 3cd4 9d3d c4fa d8bd 9301 b43d fa88 c3bd
000000a0: 0f6f a4bc bc5d 263c 1ec1 80bd e663 3139
000000b0: a4d5 8a3d 4ba8 af3d ff8b 18be a1bc 863c
000000c0: deda 8f3c bb2d 21be de92 dfbd fa0c 8dbd
000000d0: 1bdf 9bbd 1932 28be 41f8 353d 1d2c 2c3d
000000e0: f954 e5bc 1a05 e13c 2199 37be 25e1 003c
000000f0: e656 9fbd 70ef 69bc 3001 16bd 7762 8b3d
00000100: ca67 d13c 7684 353d 63b7 27bd 282f 2ebe
00000110: 2f8b 413d a81b 16bc b64d b5bc 0355 3cbc
00000120: 6ab4 833d 1f05 7d3c f33a 193d 6939 853d
00000130: 4915 d8bd 7055 0ebd c35d 5e3d b26a f4bd
00000140: 7f9f 33bd 70e6 263b 6724 043c 7c10 b4bd
00000150: bdf9 d1bc c943 38bd 6a90 3b3d 4353 12bc
00000160: e8bf 19bc c2e6 b1bc acf6 59bc 0307 ba3d
00000170: c2d9 21bd 7a42 d03d 6ea6 783d c6fe 713d
00000180: 8faf 823c f01b 943d 2c06 80bd b89f 10bd
00000190: 1df0 f0ba 3cdf 49bd 5e1a 1d3d 522a 503d
000001a0: 393f 1dbe 6037 cfbc 9316 413d 3451 00be
000001b0: 3895 3cbe b521 783d 861b 89bd 2318 93bd
000001c0: 6547 c23d 7106 1e3d d80e f9bd 1de0 3abe
000001d0: 70db 93bd d6de c3bd d634 853d 6b10 0cbd
000001e0: 9bac f0bc b091 d8bd 78ef 97bd 897c f6bd
000001f0: 45ad 51bc 9f94 d3bd f2b4 16bb 41e5 90bd

network_body.linear_encoder.seq_layers.0.weight f4 [128, 34]
0.24858566 -0.05037431 0.17083415 0.21232572 0.04518438 0.1793877 0.23159605 -0.47819468
-0.12157221 -0.307628 -0.16793415 -0.07005066 0.31377995 -0.27973813 0.14829083 0.03334092
-0.16602074 0.11621742 -0.063891396 -0.13950227 -0.07586665 0.22592579 -0.15101084 -0.098873295
0.27825624 -0.31059417 0.4140427 0.052586745 0.04033304 0.06452597 0.22657555 -0.31750304
0.04440276 0.17462753 0.2939274 -0.052658603 0.011642302 0.05072344 0.12897068 0.124016225
-0.3787656 -0.0052913404 -0.31812325 0.34629506 -0.061600648 -0.02183534 -0.057429712 -0.5349644
0.04220253 -0.023063848 0.26542062 0.074411064 -0.071618594 -0.20885873 0.13580287 0.01969784
-0.1557892 -0.081856675 0.3454202 -0.122984976 -0.028890638 -0.071388185 0.057632163 0.055121697
0.15400258 -0.18771896 0.09457784 0.17696185 -0.36758542 0.017855003 -0.016682182 -0.07229221
-0.20939232 -0.056753736 -0.45420724 -0.42111793 -0.36854902 0.06528136 -0.19770673 -0.02249518
0.19439855 -0.15752682 -0.21807243 -0.47146606 -0.6374933 -0.028440833 -0.38236114 -0.29196298
-0.14074615 0.0100074755 -0.3452958 -0.7096879 0.110405 -0.08378407 -0.033703547 -0.24955073
0.378071 -0.06332724 -0.12857613 0.17594337 0.085219555 0.21942483 -0.04467803 -0.26822212
-0.045066822 -0.20582418 0.0012266748 0.02994545 -0.24550228 -0.13844839 -0.27669582 -0.16137367
0.068105824 -0.019045051 -0.17545806 -0.009405749 -0.27230605 0.05612013 0.24584904 0.13769676
0.37274832 -0.30020878 0.21154447 -0.08935201 -0.2882224 -0.3052882 -0.124685965 -0.0045295944
-0.074913695 0.21359959 -0.2655717 -0.17918077 -0.22232369 0.030698411 0.28170982 0.38970876
-0.06392423 0.1654758 -0.509617 -0.24968024 0.17737043 -0.2148486 -0.3471087 0.1632527
-0.15811451 -0.29797953 0.07595341 -0.25104582 -0.10600871 0.46742758 -0.28325537 -0.40109456
0.11703789 0.13567337 0.0585602 0.3647834 0.25198868 -0.0896586 0.15472029 0.43094724
-0.220242 0.050749794 -0.03319352 -0.027606644 0.22891551 -0.20366377 -0.21448828 -0.04448001
-0.060913917 0.24932171 -0.45102975 0.10600475 -0.2133725 0.016117556 -0.17688678 -0.15609567
0.08278239 0.5061102 -0.06804291 -0.20938161 0.21013182 0.2513944 -0.43730238 -0.107744835
-0.048479754 -0.0056841425 0.23118657 0.035690565 -0.20301908 0.1251341 0.42878616 -0.25916743
-0.14885905 -0.077323586 -0.06768458 0.3484754 -0.28142923 -0.3429757 -0.0036213968 -0.13797645
0.02444051 0.30176792 0.12050946 0.014445813 -0.037114836 -0.2721869 0.21818978 -0.14827257
0.032595214 0.12739705 0.11125818 0.006121103 -0.01402932 0.25012103 -0.51603526 -0.21618111
-0.2202665 -0.1980551 -0.058029022 -0.09872792 0.2004047 -0.04156841 -0.115775555 -0.14143136
0.114892416 0.15384273 0.24047667 0.22454989 0.08840136 0.013417683 -0.33391154 0.069839664
-0.22993201 0.23581411 -0.2245313 0.11492206 0.251813 0.09744638 -0.4333514 0.3962014
0.38910872 0.021326205 -0.008678831 -0.06685472 0.47998977 -0.17949753 0.07484199 -0.3353564
0.1391851 0.09552317 -0.012126327 -0.07718499 0.1856697 0.092144534 0.31076357 0.09484679
00000000: 3d8d 7e3e 4b55 4ebd 26ef 2e3e ea6b 593e
00000010: 4213 393d 69b1 373e 8427 6d3e efd5 f4be
00000020: dafa f8bd 6b81 9dbe eef6 2bbe b876 8fbd
00000030: c4a7 a03e d639 8fbe 8dd9 173e 7d90 083d
00000040: 5701 2abe 6603 ee3d 7ed9 82bd afd9 0ebe
00000050: f95f 9bbd 1759 673e 96a2 1abe 157e cabd
00000060: 9a77 8e3e 3306 9fbe 68fd d33e 3365 573d
00000070: 4234 253d 3126 843d 6c03 683e c28f a2be
00000080: abdf 353d 8fd1 323e a77d 963e 8cb0 57bd
00000090: 5bbf 3e3c 62c3 4f3d e410 043e 38fc fd3d
000000a0: 91ed c1be fb62 adbb 0de1 a2be 964d b13e
000000b0: f650 7cbd 07e0 b2bc 6b3b 6bbd 6df3 08bf
000000c0: 8fdc 2c3d 65f0 bcbc 36e5 873e d464 983d
000000d0: c5ac 92bd 10df 55be e80f 0b3e 5d5d a13c
000000e0: 3487 1fbe 79a4 a7bd ebda b03e 8cdf fbbd
000000f0: 0fac ecbc f833 92bd b40f 6c3d 4ac7 613d
00000100: dab2 1d3e 6639 40be 07b2 c13d 7d35 353e
00000110: 2834 bcbe a844 923c 12a9 88bc f00d 94bd
00000120: f16a 56be 9b76 68bd da8d e8be c59c d7be
00000130: 75b2 bcbe 3cb2 853d a273 4abe d047 b8bc
00000140: 6a10 473e b64e 21be 614e 5fbe 0064 f1be
00000150: c332 23bf c0fc e8bc d7c4 c3be 2c7c 95be
00000160: c21f 10be 65f6 233c 9cca b0be 1bae 35bf
00000170: 041c e23d fc96 abbd bb0c 0abd 3a8a 7fbe
00000180: 8692 c13e b6b1 81bd 76a9 03be 802a 343e
00000190: 9787 ae3d e7b0 603e 4f00 37bd 6954 89be
000001a0: fd97 38bd 93c3 52be 60c8 a03a 2950 f53c
000001b0: f364 7bbe 6ac5 0dbe 13ab 8dbe 243f 25be
000001c0: 117b 8b3d 5e04 9cbc 47ab 33be 921a 1abc
000001d0: b36b 8bbe 39de 653d dabf 7b3e 6100 0d3e
000001e0: ded8 be3e f7b4 99be 1d9f 583e 30fe b6bd
000001f0: e391 93be bc4e 9cbe 5b5b ffbd fe6c 94bb
00000200: 5a6c 99bd dab9 5a3e 04f9 87be 2a7b 37be
00000210: d2a8 63be 3c7b fb3c 453c 903e e887 c73e
00000220: b5ea 82bd 7d72 293e 4276 02bf 2dac 7fbe
00000230: 98a0 353e 4501 5cbe 3bb8 b1be b72b 273e
00000240: c5e8 21be c690 98be 768d 9b3d 1489 80be
00000250: 181b d9bd ab52 ef3e d906 91be 445c cdbe
00000260: 90b1 ef3d f6ed 0a3e d2dc 6f3d e4c4 ba3e
00000270: a904 813e ee9e b7bd ff6e 1e3e 1ea5 dc3e
00000280: 1e87 61be 04df 4f3d eef5 07bd 5427 e2bc
00000290: d468 6a3e 3c8d 50be d1a2 5bbe ac30 36bd
000002a0: df80 79bd 314e 7f3e 5fed e6be 0519 d93d
000002b0: 527e 5abe f708 843c cf21 35be 8bd7 1fbe
000002c0: d089 a93d 7090 013f 155a 8bbd 2268 56be
000002d0: cc2c 573e c4b6 803e 19e6 dfbe 53a9 dcbd
000002e0: b592 46bd 0b42 babb 2cbc 6c3e 4530 123d
000002f0: 3ce4 4fbe 2723 003e dc89 db3e 98b1 84be
00000300: 826e 18be d45b 9ebd 379e 8abd 5e6b b23e
00000310: 7e17 90be 839a afbe f554 6dbb b349 0dbe
00000320: 7737 c83c 5381 9a3e aacd f63d 22ae 6c3c
00000330: ba05 18bd 155c 8bbe 246d 5f3e c4d4 17be
00000340: 8f82 053d 5f74 023e 54db e33d 8993 c83b
00000350: 3cdb 65bc dd0f 803e e31a 04bf 955e 5dbe
00000360: 8b8d 61be f5ce 4abe d7af 6dbd dd31 cabd
00000370: e436 4d3e a343 2abd bc1b edbd 62d3 10be
00000380: b74c eb3d f388 1d3e 843f 763e 68f0 653e
00000390: c60b b53d d7d5 5b3c 74f6 aabe 1908 8f3d
000003a0: 4c73 6bbe 4179 713e 88eb 65be 425c eb3d
000003b0: a2ed 803e f891 c73d 3ce0 ddbe e9da ca3e
000003c0: 4239 c73e 4bb4 ae3c a831 0ebc 21eb 88bd
000003d0: 38c1 f53e 33ce 37be c246 993d d6b3 abbe
000003e0: 8a86 0e3e a7a1 c33d 80ad 46bc 2a13 9ebd
000003f0: 3320 3e3e 46b6 bc3d 671c 9f3e 093f c23d

network_body.linear_encoder.seq_layers.2.bias f4 [128]
0.03392921 -0.046057284 0.014137751 0.0697073 0.066887595 -0.09206432 -0.043377053 -0.12663531
-0.0463418 0.010479231 0.051718775 0.042117093 0.049720857 -0.07619048 0.02440568 -0.08951231
-0.037049036 0.0096113775 -0.060118686 -0.021513643 -0.038788408 -0.009256205 0.029642278 0.03002758
-0.12950405 0.06438518 0.029249778 0.101589054 -0.03729638 -0.052011643 -0.058814753 0.054733712
0.00043050814 -0.03149738 -0.011589572 0.04693739 -0.06475889 -0.025990775 0.10030049 -0.06254607
-0.027641091 0.10721364 -0.10773197 0.019313155 0.039918307 0.027678784 -0.05876219 -0.029599762
-0.02830044 0.033240758 -0.0147084445 0.012208149 0.0420429 -0.06899383 0.034301896 0.0055201934
-0.0065960973 -0.01890728 -0.047869943 0.067403056 -0.019293737 -0.013036532 -0.0523354 -0.0011827128
0.0005040386 -0.06631378 0.06573141 -0.031103095 -0.014969395 -0.061641157 -0.036693443 0.022850191
0.03355598 -0.0007176547 0.027721355 -0.008742131 -0.050501335 -0.023579182 -0.035000008 0.08207655
-0.064102925 -0.054305762 -0.083445646 0.0025875361 -0.0061892243 0.0048524723 -0.08789263 -0.06820257
0.008980529 -0.09071535 0.063505 -0.059466533 -0.010146993 0.042586785 0.030045489 0.035118766
0.0063114148 0.032431453 0.07581792 0.066520005 -0.030883448 -0.056170654 0.025525037 0.039120857
-0.0049138707 0.071214974 0.030477032 0.03462559 0.09015534 -0.04285455 0.041582204 -0.0368071
0.09337418 -0.09054297 0.040104706 0.06226451 0.064625055 0.059821464 -0.055451874 0.0020993666
0.08336965 -0.042197302 0.0026491557 0.04786616 0.024613407 0.028279616 -0.03056597 -0.01769759
00000000: 5bf9 0a3d 90a6 3cbd 07a2 673c b3c2 8e3d
00000010: 5dfc 883d 388c bcbd 23ac 31bd b0ac 01be
00000020: e6d0 3dbd 15b1 2b3c 11d7 533d f982 2c3d
00000030: 19a8 4b3d c109 9cbd 6cee c73c 3b52 b7bd
00000040: bbc0 17bd 0a79 1d3c 033f 76bd 613d b0bc
00000050: 98e0 1ebd 56a7 17bc 5dd4 f23c 66fc f53c
00000060: b69c 04be 61dc 833d 3b9d ef3c ec0d d03d
00000070: 17c4 18bd 290a 55bd bde7 70bd 7530 603d
00000080: d3b5 e139 6603 01bd 30e2 3dbc 6c41 403d
00000090: 4fa0 84bd 9bea d4bc 586a cd3d 2718 80bd
000000a0: 926f e2bc d392 db3d 94a2 dcbd 9f36 9e3c
000000b0: 6181 233d 9ebe e23c 9fb0 70bd 337b f2bc
000000c0: 53d6 e7bc 7627 083d b0fb 70bc b004 483c
000000d0: 2d35 2c3d a34c 8dbd 2580 0c3d bde2 b43b
000000e0: 1324 d8bb 71e3 9abc 4613 44bd 9d0a 8a3d
000000f0: e60d 9ebc 2e97 55bc a55d 56bd 4205 9bba
00000100: 7521 043a 85cf 87bd 319e 863d ebcb febc
00000110: 3142 75bc 707b 7cbd dd4b 16bd 5330 bb3c
00000120: ff71 093d fe20 3cba e517 e33c 283b 0fbc
00000130: 7dda 4ebd 2129 c1bc 2b5c 0fbd c017 a83d
00000140: 6548 83bd b86f 5ebd 8de5 aabd a793 293b
00000150: face cabb 7d01 9f3b 0d01 b4bd caad 8bbd
00000160: 1223 133c f8c8 b9bd e90e 823d 2e93 73bd
00000170: 933f 26bc 7b6f 2e3d f521 f63c b2d8 0f3d
00000180: fccf ce3b d8d6 043d 6d46 9b3d a43b 883d
00000190: 49ff fcbc 3313 66bd e219 d13c 313d 203d
000001a0: 8904 a1bb 28d9 913d f8aa f93c 90d3 0d3d
000001b0: 5da3 b83d 4188 2fbd 1a52 2a3d 0bc3 16bd
000001c0: f63a bf3d 986e b9bd d544 243d 1209 7f3d
000001d0: 245a 843d 5a07 753d 8121 63bd 8795 093b
000001e0: b5bd aa3d 14d7 2cbd 759d 2d3b 4e0f 443d
000001f0: 0ea2 c93c a7aa e73c 7c65 fabc 89fa 90bc

network_body.linear_encoder.seq_layers.2.weight f4 [128, 128]
-0.19380975 -0.08390562 -0.12576926 0.2592974 -0.04629082 -0.10265339 -0.075859115 0.17089836
-0.108355716 -0.18107137 -0.0023601782 0.06449913 0.06626368 -0.0053690523 0.02272554 -0.3432929
-0.072617516 -0.25855288 -0.08817234 -0.027026411 -0.12533638 0.039580673 0.082418285 0.2047079
-0.07256733 0.08255774 -0.21791674 -0.09488164 0.23701008 -0.12048662 -0.29422903 -0.209138
-0.020856049 -0.02067473 -0.10154457 0.12533031 -0.114952266 -0.2473973 -0.2085003 -0.22900543
-0.111204356 0.16559239 0.027865281 0.085056454 0.30268773 0.0679624 -0.23525468 -0.17203371
-0.015099954 0.07012278 -0.05534972 0.11417274 -0.16848284 -0.05509296 -0.1265154 -0.19969429
-0.015569524 0.04030861 -0.20277949 0.12063987 0.05857958 -0.2652581 -0.047873084 -0.044491738
0.14291997 -0.149215 -0.22406606 0.066819824 0.21337555 0.15766336 -0.093430944 -0.3440211
-0.13665603 0.06779365 0.16654088 -0.07436561 -0.08129266 0.09910833 -0.057158045 0.008480926
-0.120072246 0.04317645 -0.18781164 -0.09892248 -0.037916943 -0.21298811 0.3203471 -0.18840334
-0.023555113 0.022921478 -0.18166088 -0.36533147 -0.19847418 -0.17920445 -0.43776616 0.13178717
-0.083014935 -0.110326976 0.11571045 -0.0723982 -0.080929555 0.104568094 0.055307828 -0.12145677
0.06426771 -0.11922201 -0.10911453 -0.1124067 -0.0715525 0.012067332 -0.15728168 -0.0055353097
0.06318374 -0.10308505 -0.028499024 -0.047477104 -0.44922632 0.074742526 0.039752346 0.1750951
-0.08770567 0.085863136 -0.22672431 0.0074549513 0.0915795 -0.08667636 0.055969853 -0.15995073
-0.124664865 -0.08068487 -0.021365039 0.048609518 -0.13517836 0.029906679 0.103867106 -0.12791541
-0.052617256 0.024132079 0.044873174 0.017877173 -0.032343134 -0.064486854 0.045345582 -0.06325567
-0.09383091 -0.14221494 -0.07502123 -0.1646333 0.0017826855 -0.08964773 -0.4360311 -0.029832918
-0.3301345 -0.1315286 0.026342578 0.04546997 -0.05166442 -0.021535572 0.11363591 -0.059238445
0.19875567 0.10855352 -0.1931479 0.008606823 -0.054370124 -0.17289156 -0.29219273 -0.07617424
0.16496252 -0.11922339 0.07420508 0.1442219 -0.18584079 -0.08681718 0.022987118 0.13679144
0.06597144 0.036706377 -0.19288689 -0.14920202 -0.22752485 -0.15980606 0.11596967 -0.05118415
-0.06734675 -0.21230702 -0.031528514 -0.26691586 -0.20854346 -0.2739167 -0.20172144 0.10244769
-0.037896495 -0.043289885 0.07377093 -0.06615873 -0.20351593 -0.010041809 0.076400995 -0.066754386
0.0792948 -0.11024301 -0.10785942 0.013046648 0.08225754 -0.28184026 0.02501793 -0.053654283
-0.027162468 -0.22160573 -0.0131075755 -0.23565136 -0.01593775 0.08208517 -0.040121637 -0.17970017
-0.017051216 -0.16741219 -0.1295529 0.027311202 -0.09378478 0.056354612 -0.12545043 -0.25302622
-0.014317255 -0.06018591 -0.16888423 0.21721801 -0.21441224 0.06402204 0.05365609 -0.052070126
-0.19328512 -0.089195386 0.22486809 0.051788308 0.011442047 -0.43087682 -0.065895915 -0.14137939
0.13068135 -0.040393084 -0.15019816 -0.095964245 -0.06230508 -0.34024626 -0.13062775 -0.22981653
-0.0031113368 -0.16224745 0.12056054 -0.26806337 -0.1496555 -0.11498577 -0.1798938 -0.21887057
00000000: 1076 46be b6d6 abbd a8c9 00be a1c2 843e
00000010: 719b 3dbd f13b d2bd 065c 9bbd fbff 2e3e
00000020: 9ae9 ddbd c66a 39be 38ad 1abb 1f18 843d
00000030: 41b5 873d e0ee afbb e92a ba3c 16c4 afbe
00000040: 7eb8 94bd 0b61 84be b393 b4bd 7e66 ddbc
00000050: 2e58 00be 581f 223d ebca a83d f39e 513e
00000060: 2e9e 94bd 0814 a93d 9125 5fbe 4e51 c2bd
00000070: c5b2 723e b0c1 f6bd 30a5 96be 4628 56be
00000080: 4eda aabc 0d5e a9bc 99f6 cfbd 9756 003e
00000090: 186c ebbd b855 7dbe 1a81 55be 6680 6abe
000000a0: 1cbf e3bd 0d91 293e bb45 e43c 1432 ae3d
000000b0: e3f9 9a3e df2f 8b3d 9ae6 70be 9b29 30be
000000c0: cc65 77bc 889c 8f3d 63b6 62bd 66d3 e93d
000000d0: c486 2cbe 28a9 61bd 418d 01be a97c 4cbe
000000e0: 5117 7fbc a41a 253d 6da5 4fbe 0912 f73d
000000f0: 24f1 6f3d e9cf 87be 9116 44bd f83c 36bd
00000100: 9d59 123e d1cb 18be 9371 65be d5d8 883d
00000110: 1f7f 5a3e 8172 213e b958 bfbd 8923 b0be
00000120: 8fef 0bbe 66d7 8a3d b189 2a3e ff4c 98bd
00000130: c47c a6bd 4ff9 ca3d 8e1e 6abd 95f3 0a3c
00000140: 70e8 f5bd cad9 303d b251 40be df97 cabd
00000150: cc4e 1bbd 8e19 5abe 8904 a43e ceec 40be
00000160: a7f6 c0bc d3c5 bb3c 4f05 3abe ba0c bbbe
00000170: d13c 4bbe 5f81 37be e322 e0be 37f3 063e
00000180: bc03 aabd 1cf3 e1bd 9af9 ec3d 8245 94bd
00000190: 65be a5bd cc27 d63d 768a 623d 54be f8bd
000001a0: ca9e 833d ab2a f4bd 7077 dfbd 7c35 e6bd
000001b0: 1e8a 92bd 0fb6 453c 730e 21be 8b61 b5bb
000001c0: 7a66 813d 411e d3bd c976 e9bc 5a77 42bd
000001d0: fe00 e6be 9c12 993d 5bd3 223d 214c 333e
000001e0: 089f b3bd 03d9 af3d 6b2a 68be aa48 f43b
000001f0: 088e bb3d 6083 b1bd a540 653d 20ca 23be
00000200: 4b50 ffbd 1c3e a5bd bc05 afbc c61a 473d
00000210: 326c 0abe dafe f43c 47b8 d43d 42fc 02be
00000220: 3185 57bd a3b0 c53c efcc 373d 2673 923c
00000230: 3c7a 04bd af11 84bd 4abc 393d 308c 81bd
00000240: 6c2a c0bd cba0 11be bba4 99bd a295 28be
00000250: 00a9 e93a 3b99 b7bd 783f dfbe 2a64 f4bc
00000260: 6407 a9be 6faf 06be 64cc d73c b83e 3a3d
00000270: 129e 53bd 5e6b b0bc f2b9 e83d 03a4 72bd
00000280: 9b86 4b3e 4f51 de3d 90c8 45be a203 0d3c
00000290: 35b3 5ebd 7c0a 31be 499a 95be 3d01 9cbd
000002a0: efeb 283e 652b f4bd d5f8 973d e8ae 133e
000002b0: 0c4d 3ebe 35cd b1bd 7b4f bc3c 0e13 0c3e
000002c0: 091c 873d 6d59 163d 2484 45be 6ac8 18be
000002d0: 46fc 68be 33a4 23be 8281 ed3d 79a6 51bd
000002e0: 18ed 89bd 0367 59be 0b24 01bd 32a9 88be
000002f0: 6b8c 55be cf3e 8cbe 1190 4ebe 18d0 d13d
00000300: 5b39 1bbd bc50 31bd 3715 973d 3a7e 87bd
00000310: 7b66 50be 6686 24bc 2078 9c3d 86b6 88bd
00000320: 5065 a23d 16c7 e1bd 66e5 dcbd 9cc1 553c
00000330: a476 a83d 5e4d 90be 67f2 cc3c 98c4 5bbd
00000340: d383 debc 9dec 62be 28c1 56bc 974e 71be
00000350: e28f 82bc 451c a83d 9656 24bd 5203 38be
00000360: feae 8bbc 1a6e 2bbe 84a9 04be bebb df3c
00000370: 3c12 c0bd 18d4 663d 1476 00be a78c 81be
00000380: eb92 6abc 8085 76bd fdef 2cbe 666e 5e3e
00000390: e28e 5bbe fd1d 833d 7dc6 5b3d 7c47 55bd
000003a0: 89ec 45be 12ac b6bd d243 663e fa1f 543d
000003b0: 6c77 3b3c e39b dcbe 70f4 86bd c2c5 10be
000003c0: 55d1 053e 3873 25bd 8ccd 19be e788 c4bd
000003d0: 9d33 7fbd c234 aebe 48c3 05be 0655 6bbe
000003e0: 92e7 4bbb 3224 26be 72e8 f63d 9a3f 89be
000003f0: 4b3f 19be a97d ebbd 1536 38be 9b1f 60be
